WatermarkRemoval/results/model_epoch_2.onnx (onnx, 485026 bytes, 36 tensors)

initial_conv.weight f4 [8, 3, 3, 3]
00000000: 9fa5 733d 2569 45be 688a e23d d68c 193d
00000010: 14bf 31be fee0 1abd b98c ab3d 0599 a3bc
00000020: 6c39 f63d 3a05 c7bd ee10 263e 5eb5 003d
00000030: 6a83 2e3e e4ac 2ebe 8ca6 efbd 1826 dc3d
00000040: 6ce8 28be d42a 6abd 9d5f 4b3e 5436 9bbc
00000050: 1174 66bd aebb 54bd 6e06 303e 6730 3c3e
00000060: 3240 9b3d b51d adbc 5c20 4a3e 0fef 14be
00000070: 4db5 14be 88b8 4cbe 7ae4 d63d 78ec 4bbe
00000080: 83ff 0d3e 6ccc 7cbc 3b42 9cbc 5af6 0c3e
00000090: d121 37be 925c 8bba e0d6 ebbd 4320 403e
000000a0: 16e2 043e 8a3e 16be 7c52 863d 36b6 1abe
000000b0: 7412 27bd bbf9 54bd d965 1b3c e9da 1ebe
000000c0: ca46 15bd 911c 8c3d 26c6 413e 6edd a73c
000000d0: 2550 1abd e926 b8bd ba7a b03d e628 593d
000000e0: 91b3 233d 1b63 0abe 30da 1a3e 6b8a 0dbe
000000f0: 2bbf f13d 426d 8fbd afa7 a6bd 844c 3cbe
00000100: e9ef 353d bce5 233e f924 0f3e 949f b33d
00000110: b40e 02bd eba7 923c c3d3 263e 4366 1e3e
00000120: 81f5 b3bd d147 30be c168 c7bd 8de6 debc
00000130: 69f3 0dbe 9ee2 e23d 1e41 9bbd f3a0 373e
00000140: 17bd e13d f49e 323e f858 823d 6499 363e
00000150: 59fa efbd 4d43 1bbe 3db0 2f3e 8038 09be
00000160: af95 3cbd e026 943d fe55 483d b192 e33d
00000170: ddad 1ebd 8fef 93bd 29c9 b43d c422 2fbe
00000180: 5482 f43d 385f ec3d 7ece 663d 1d12 4ebb
00000190: 3224 023e 75c9 3e3e 10c3 b2bd b110 26bd
000001a0: 1f4e 33be 052a 273e 3ef8 9abb d589 4dbd
000001b0: 9af0 82bc d33b 8e3d 5dab e23d 58b3 44bd
000001c0: 808b 393e 643f e13d 6ce1 573d 4e7f d03b
000001d0: a77b 343e c0bc 693d e626 0ebe 62d2 bc3c
000001e0: f534 733c dce3 b83d d090 013e dba4 36bd
000001f0: 1c84 3dbe 7cec 14be a8fa 8d3c 4821 b13c
00000200: 68bc 843d 8f65 033d 1825 113e 3c98 f4bd
00000210: 3064 e43d 8cdd 223e 6ef9 95bd 7fc1 313e
00000220: 2a25 353d 51cf 69bc 24dc 26bd 545f 253d
00000230: af89 59bb d1ee fbbd 566d 92bd 48dd e4bc
00000240: 06c1 45be f481 44be 6c0b 7a3d 01e8 8a3d
00000250: 5ec3 323d 7527 c83c 0615 2a3e 6276 5bbe
00000260: 780a 4cbe f481 293e 271d 263c 07dd 1a3c
00000270: 234a 11be 259d 76bc 85ff 3a3d 5062 2c3e
00000280: 7b52 e6bd c242 423d 3034 303e f6ef f73d
00000290: db66 a8bd 9f07 083d de95 5e3d 7956 433e
000002a0: 4fd2 a8bd 0d9d 0a3e 0a6b a5bd dc04 1abe
000002b0: 99df 30be 8b27 edbb 2a46 0abe f33d 11bd
000002c0: 27fd 9f3c 9f43 f53d 993f fbbd 70dc e93b
000002d0: 04a3 39be 16bd 8dbc 56e0 26be fa66 41be
000002e0: 656e 083e ee0c 3bbe 295d 103d 1c3f 36be
000002f0: 8d85 3d3d e3f5 16bd e358 00be 844a 0c3d
00000300: 8ade 063e e4fb 89bd 6fea 513e 347c 48bd
00000310: a876 813c 4ad0 483e c3e0 5ebd 38a8 213e
00000320: a5b7 1e3e 480f 7fbc 7b3b 07be 5288 18be
00000330: 754b 4abc 8e78 1dbd 61d0 f53d e100 d93d
00000340: 3a82 adbd d4f6 8e3d 1273 3a3c d90f 27be
00000350: 8417 d03d 44e9 953d 5dc2 1d3c 8aac 2cbe
0.05948412 -0.1927839 0.11061555 0.037487827 -0.17358047 -0.037812226 0.0837645 -0.019970426
0.12022671 -0.09717794 0.16217396 0.031422965 0.17042318 -0.1705814 -0.11701688 0.10749453
-0.16494912 -0.05716975 0.19860692 -0.018946804 -0.056263033 -0.051936798 0.17189953 0.18377839
0.07580604 -0.02113233 0.19738907 -0.14544319 -0.14522286 -0.19992268 0.10492797 -0.19914424
0.13867001 -0.015429597 -0.01907455 0.1376585 -0.17883994 -0.0010632447 -0.115155935 0.18762307
0.1297687 -0.14672294 0.065587014 -0.1510857 -0.040789083 -0.051995974 0.009484732 -0.15513195
-0.036444463 0.06841386 0.18923244 0.020491328 -0.037674088 -0.089917965 0.08617158 0.05301752
0.03996617 -0.13514368 0.15122294 -0.13822334 0.118040405 -0.07003261 -0.08137452 -0.18388563
0.04441825 0.16005605 0.13978948 0.087706715 -0.031752303 0.017902335 0.16291718 0.15468697
-0.087870605 -0.17214896 -0.09736777 -0.027209545 -0.13862385 0.1107838 -0.075807795 0.17932491
0.11022394 0.17443448 0.06364626 0.17831951 -0.11717672 -0.15162392 0.17157073 -0.1340046
-0.046041187 0.07233977 0.048910134 0.111119635 -0.038740028 -0.072234266 0.08827431 -0.17103106
0.119389206 0.11541599 0.05634927 -0.0031443902 0.1270912 0.18631537 -0.087286115 -0.040543262
-0.1751027 0.16324623 -0.0047293 -0.050180275 -0.015983868 0.06945004 0.11067841 -0.048022598
0.18119621 0.10998419 0.052705213 0.006362832 0.17625295 0.05706477 -0.13882026 0.023049537
0.014844169 0.09027836 0.12652898 -0.044590812 -0.18507427 -0.14543337 0.017331436 0.021622315
0.06481248 0.032079276 0.14174306 -0.11943099 0.11151922 0.15904826 -0.073229656 0.17358969
0.044224896 -0.0142706195 -0.040737286 0.040374115 -0.0033193638 -0.1230141 -0.071497604 -0.027937546
-0.19311914 -0.19190198 0.06104605 0.067825325 0.043643348 0.024432877 0.16609582 -0.21431878
-0.19925869 0.1655348 0.010138786 0.009452111 -0.14188437 -0.015052115 0.04565384 0.16834378
-0.11246201 0.047426946 0.17207408 0.12106316 -0.08222743 0.033210393 0.054342143 0.19075955
-0.08243238 0.13536473 -0.08077057 -0.15040916 -0.17272796 -0.00723738 -0.13503328 -0.03545947
0.019529892 0.11975788 -0.1226799 0.007136874 -0.18128592 -0.017302077 -0.16296515 -0.18886939
0.13323362 -0.18266651 0.035245094 -0.17797512 0.046269942 -0.03685559 -0.12533908 0.03425075
0.1317083 -0.067374974 0.20499586 -0.048946574 0.01580365 0.19610706 -0.05441357 0.15786827
0.15499742 -0.015567608 -0.13206284 -0.14895752 -0.012347092 -0.038445048 0.12002636 0.10595871
-0.08472104 0.069806725 0.011379974 -0.16314639 0.10160735 0.073198825 0.009628859 -0.16862693

initial_conv.bias f4 [8]
00000000: 76ec 5cbd 5502 ebbd c8fc 243e c4c9 0c3e
00000010: be41 3e3e 77d9 42be 84b8 343e e993 2c3e
-0.053936444 -0.11475054 0.16112053 0.13748842 0.18579766 -0.19028269 0.17648512 0.16853298

dense_block.layers.0.0.weight f4 [8]
00000000: 09d2 803f 9d80 7f3f 56ae 7f3f f29a 773f
00000010: 63b7 803f 5cc5 843f 0ff0 7e3f 2b42 7d3f
1.0064098 0.99805623 0.9987539 0.967208 1.0055965 1.0372729 0.9958505 0.9892909

dense_block.layers.0.0.bias f4 [8]
00000000: 3d22 243d 6db9 a03b 4cbe e03c 1db0 35bc
00000010: 6585 f13c e16a 863d 28c2 343d 54cd 203d
0.040071715 0.004904917 0.02743449 -0.011089352 0.029482553 0.06563354 0.044130474 0.039258316

dense_block.layers.0.0.running_mean f4 [8]
00000000: 0785 1c3e f7cb d2be e106 a93e a9af c73e
00000010: 22d1 083f 3c3e a2be 2aa7 c8bd c918 9a3e
0.15285121 -0.41171238 0.3301306 0.39001206 0.5344411 -0.31688106 -0.09797509 0.30097035

dense_block.layers.0.0.running_var f4 [8]
00000000: 6138 b63c 6a65 fb3c 695b 3d3c 3c7d b93c
00000010: d0d2 243d 319c dd3b a728 363d 4443 dc3b
0.02224368 0.030688006 0.011557438 0.022642724 0.04024011 0.006763004 0.044472363 0.006721886

dense_block.layers.0.2.weight f4 [4, 8, 3, 3]
00000000: 7775 63bd 73ba 5c3c 287a 483b 5ee7 583d
00000010: d89f 5ebc 9c0c c93d eacf ff3c 0343 de3d
00000020: 819d 313d eb08 e0bd 17f7 dc3d 0217 88bd
00000030: 984d 8b3c de8f dfbd a155 ebbd 8366 73bd
00000040: 6d26 433d ccab edbd 9eec 7cbd 8031 963d
00000050: 8882 843d f12c 49bc aaaa a9bd 8773 ddbd
00000060: 2bb8 25bd 97cd 993c 5727 ecbc 4fd6 6f3c
00000070: c0f4 6dbc 18b0 433d 7956 1abd f35d b8bc
00000080: 1a9f 36bd 888c 96bd 7e16 a0bd 7db2 803d
00000090: 8aab 80bd 3c87 2d3d 2f1c f43c 3e8c 673d
000000a0: e3ff aa3d 03de c13d 262a cfbd 1754 543d
000000b0: 15f5 ba3d a19b db3c bb45 e03c 0560 493d
000000c0: 81ac 943d 6fd1 c0bd 7021 4cbc 97a3 863c
000000d0: cd87 a73d 3f59 f93b 391a bbbd 2426 7abd
000000e0: cc2e b23d 948b d63d 5e7c a1bd 772c c63d
000000f0: 6359 4fbd 8c25 96bd 5aba 6dbd 579c b8bc
00000100: 03ba e0bc 4c69 f9bd 66cb 1bbd 9681 43bd
00000110: 2d81 103d 1805 c23d 8157 c63d 2b0b c13d
00000120: 178e 293d 9513 3ebd cd0c b3bd 23e2 d7bc
00000130: 949c a93c 5338 bb3d aaed d7bc a872 d1bd
00000140: bd5c 3c3c 7fc7 c2bd c54f 793c baed 1bbd
00000150: 9434 89bd 6152 023d 1703 023d 7cb7 0c3d
00000160: 5d3a a9bd 092f 83bd aae4 9c3d cb4e 893c
00000170: 2fb0 503d c3da 9d3d 1a96 8b3c 9e01 863d
00000180: 995f b43c 0b85 e83d 9492 59bd d47c d43d
00000190: cac6 603d aa93 86bd 4038 5e3d 58ae cbbd
000001a0: c461 b73c 1023 103c 568c 8dbd 6f44 c9ba
000001b0: 804c bebd 9534 5b3d 1281 55bd 0207 ecbd
000001c0: 88df 983d 02f4 4cbc 1f2d aa3d 7b2b c1bc
000001d0: 873d 6bbd 8cd9 d3ba 3df2 4cbd 3cd2 1ebb
000001e0: 9658 b9bd 76d6 cebc 8d63 f0bd d6fb 553d
000001f0: 7708 8abc 807d 8dbc f8ff 793c 0862 68bd
00000200: 516d b03d 92bb ac3d 8458 333d 8de6 2cbd
00000210: 3eca cf3d 635f 493c 4652 22bd cfa0 b63d
00000220: 2be9 e43d 6646 7cbc c757 383c 4435 c13d
00000230: 4e5d c9bd cd9a 3a3d 8b8f d03c 176d a8bd
00000240: 0ded ccbd cd98 083d 5a10 703d 3d27 8dba
00000250: c98b fb3c bc14 233c 44ae f7bd 41c3 cebd
00000260: a9b3 a23d 839b 1f3d d693 143c d1a8 2e3c
00000270: 87c3 febc 0952 3abd 97ae 963d 9551 643d
00000280: 7b49 e73b f7a6 803c 4659 9abd 654c 153d
00000290: 48fa d63d 1962 c8bd bb49 bfbc 548b 27bd
000002a0: 229b 68bc 779b c03d 08f4 c23c faea b13d
000002b0: af45 c53d 15f1 db3d 18ef a6bd 6e5f 35bd
000002c0: 4395 0e3d f3ec a8bd bddd 323d 839e 803c
000002d0: c4d8 e1bd 79c8 d63d b19f 9a3c 58e2 a6bd
000002e0: 08b3 c63d 836c 2d3d 6893 dcb7 c0b3 6cbd
000002f0: 0b5d 913c aca7 723b 3336 b5bd d318 a83c
00000300: 2e72 88bd f59b 82bc 5d10 4dbc a362 5fbc
00000310: 4d52 6a3d 9efe 763d c0f8 423d 7afd 4fbd
00000320: 1704 91bd a0cd b1ba a16e 823d 5d92 a53b
00000330: cff0 283c a530 fb3d 5b53 2b3d 7533 a8bc
00000340: 55bd 10bd 074f c7bd 5796 86bd 1ed2 c5bd
00000350: 9d6c 113c f9a1 6a3b 687a f6bd 470d 87bc
00000360: e61c f33d 5f7b dfbc f392 523d 4eee d23d
00000370: 948a b23d 1b3a 703c 07de 6ebc 69ed 8a3d
00000380: 101d abbd 6199 f93c 2e26 983d b818 3ebc
00000390: 77de b63b b0fb 0cbd 4a1e acbb 8ea0 10bc
000003a0: 7710 cd3d d647 263d e006 b13d 91a6 d2bd
000003b0: 0515 b13c 5198 ca3d 29ca caba 27a0 a83d
000003c0: 8298 593d 2bdf 9bbc 51fd 54bd ead4 dfbc
000003d0: 0003 eaba 325b 413d b798 e0bd 219e dabd
000003e0: 99e0 2fbd caf4 dfbd da39 943d f6cc 6dbc
000003f0: 4121 c1bd 1913 913d ded3 a8bc 9077 ce3d
-0.055531945 0.013472187 0.003059039 0.052955024 -0.013587914 0.09816858 0.03122707 0.10852625
0.043363098 -0.10939201 0.10789316 -0.066450134 0.017004773 -0.10916112 -0.11490942 -0.059423935
0.047644068 -0.11605033 -0.061749093 0.0733366 0.06470209 -0.012278781 -0.08284505 -0.10813051
-0.04045884 0.01877479 -0.028827352 0.0146384975 -0.014523685 0.047775358 -0.037680123 -0.022505736
-0.044585325 -0.07351023 -0.0781679 0.06284044 -0.062827185 0.042365298 0.029798595 0.05653023
0.08349588 0.094661735 -0.10115461 0.051838007 0.09128777 0.026807608 0.027377 0.049163837
0.07259465 -0.09414946 -0.012459144 0.016435428 0.08180199 0.007609516 -0.09135861 -0.06107153
0.08700332 0.10475841 -0.07885049 0.0967645 -0.050622355 -0.0733138 -0.058039047 -0.022535486
-0.027432447 -0.12178287 -0.038035773 -0.047731005 0.03527944 0.09473628 0.09684659 0.09425958
0.041395273 -0.046405394 -0.08742676 -0.026352948 0.020704545 0.09141602 -0.026358444 -0.10226947
0.01149672 -0.09510707 0.015216772 -0.03806851 -0.066994816 0.031816844 0.031741228 0.03435467
-0.08263085 -0.064054556 0.07660802 0.016761204 0.05094927 0.07707741 0.017039347 0.06543277
0.02201824 0.11353501 -0.053118303 0.103753716 0.05487708 -0.065711334 0.054252863 -0.09945363
0.022385485 0.008797422 -0.069115326 -0.0015355478 -0.09291935 0.053516943 -0.052125044 -0.11524774
0.0746451 -0.012509348 0.083093874 -0.023580303 -0.057431724 -0.0016162856 -0.050035704 -0.0024234196
-0.090500996 -0.025248747 -0.11737738 0.052242123 -0.01684974 -0.017271757 0.015258782 -0.056734115
0.086146004 0.08434214 0.043785587 -0.042212058 0.101459965 0.012290808 -0.039629243 0.089173906
0.11177286 -0.015397644 0.0112513965 0.09433988 -0.098322496 0.045557786 0.025459072 -0.08223932
-0.10006151 0.033348847 0.058609344 -0.001076914 0.030706303 0.009953674 -0.120937854 -0.100958355
0.07944424 0.038966667 0.00906845 0.010660366 -0.031099094 -0.04548839 0.07357519 0.055741865
0.00705832 0.015704615 -0.07536559 0.03644981 0.10496956 -0.09784336 -0.023350587 -0.040904358
-0.014197143 0.094046526 0.023798004 0.08687396 0.09632432 0.10739342 -0.08151072 -0.044280462
0.034810316 -0.082483195 0.043668497 0.015700584 -0.11027673 0.10487456 0.018874975 -0.081486404
0.09702116 0.042339813 -2.6294685e-05 -0.05778861 0.017744562 0.003702621 -0.08848228 0.02051965
-0.06662403 -0.015943507 -0.012516108 -0.013634357 0.057207394 0.060301416 0.047600508 -0.050778843
-0.07080858 -0.0013565309 0.06368757 0.0050528483 0.0103113195 0.122651376 0.04182754 -0.02053235
-0.03533681 -0.0973187 -0.06571644 -0.09659217 0.008875993 0.003580211 -0.12035066 -0.016485823
0.11870746 -0.027280508 0.051409673 0.10299359 0.08717838 0.014662291 -0.014579303 0.06783564
-0.083551526 0.030468645 0.07429157 -0.011602573 0.005580719 -0.034419715 -0.005252634 -0.008827342
0.10012906 0.04059585 0.086438894 -0.10285676 0.021616468 0.09892333 -0.0015471625 0.08233672
0.05312396 -0.019027313 -0.051999394 -0.027323205 -0.0017853677 0.04720611 -0.10966628 -0.10674692
-0.042938802 -0.10935362 0.07237597 -0.0145141985 -0.09430171 0.07083721 -0.020608839 0.100813985

dense_block.layers.0.2.bias f4 [4]
00000000: 0b52 323d 0824 5bbd 3787 0dbd db10 acbc
0.043535274 -0.05350116 -0.03455278 -0.021004131

dense_block.layers.1.0.weight f4 [12]
00000000: e888 803f c38e 823f ff9e 7f3f 3492 7d3f
00000010: 706f 813f 7ff4 813f 3766 7e3f 04aa 7c3f
00000020: c605 7c3f 52f8 793f a874 7c3f 5e1e 7a3f
1.004178 1.0199817 0.99851984 0.99051213 1.0112133 1.0152739 0.9937472 0.98696923
0.9844631 0.9764453 0.98615503 0.97702587

dense_block.layers.1.0.bias f4 [12]
00000000: 0714 a83c 63b7 843c 6739 caba 1f72 b13b
00000010: fcf8 2e3d e270 0d3d a89d d23b 28d0 9e3d
00000020: 28ff 1dbc 08b7 583c 90d8 38bc 9bee 77bb
0.020517362 0.016200727 -0.0015428484 0.0054152156 0.04271792 0.03453148 0.0064274855 0.077545464
-0.0096433535 0.013227232 -0.011282101 -0.003783143

dense_block.layers.1.0.running_mean f4 [12]
00000000: 0785 1c3e f7cb d2be e106 a93e a9af c73e
00000010: 22d1 083f 3c3e a2be 2aa7 c8bd c918 9a3e
00000020: 1d69 373d fd4d 63bd 924c a9bd 7ee1 f73d
0.15285121 -0.41171238 0.3301306 0.39001206 0.5344411 -0.31688106 -0.09797509 0.30097035
0.04477798 -0.055494297 -0.08266558 0.12103556

dense_block.layers.1.0.running_var f4 [12]
00000000: 6138 b63c 6a65 fb3c 695b 3d3c 3c7d b93c
00000010: d0d2 243d 319c dd3b a728 363d 4443 dc3b
00000020: 0e81 fd3d 71ea 013e 7d87 9d3d a13c dc3d
0.02224368 0.030688006 0.011557438 0.022642724 0.04024011 0.006763004 0.044472363 0.006721886
0.12378131 0.12687089 0.07691858 0.107537515

dense_block.layers.1.2.weight f4 [4, 12, 3, 3]
00000000: a536 653d 5960 9cbd 06c4 cdbc df20 8bbc
00000010: 21ae 503d f7e0 8dbb f6dd 393d 2595 8b3d
00000020: ad47 8b3d 5bce 983d 92f7 c7bc 4364 823d
00000030: 9cbc 58bd d434 9a3d c823 893d ef51 68bd
00000040: ff3e aa3d 2b95 8d3d 182f 6abd d6c0 8f3d
00000050: 1fa5 30bd b547 e73c 83d8 953b d1e8 1e3d
00000060: 16c1 533d 4ae9 973d e2de 393d 167c 763d
00000070: 8525 cc3c bf10 eb3c fea1 acbb d629 703b
00000080: badc 143b 831a 71bd 5746 66bd 396b 093d
00000090: c2de de3c 9a0d d7bd 0ae6 dabd aaa2 febc
000000a0: af45 083b 0179 803b b7ed 06bd f3a7 98bd
000000b0: 53d5 ccbd f028 9e3d 333f fe3b 2a6d 223d
000000c0: 6912 b73b f04e cdbd 82bb 933d e83b 00bd
000000d0: fb64 43bd 3b5a 37bd 2282 ccbd a522 11bb
000000e0: 89a4 48bb 3806 35bd 2e27 0dbd 22d1 7cbb
000000f0: fa1a e8bc 255a c03c d31f 443d 6c18 a3bd
00000100: b6a5 8e3d cb2a 5b3d f970 8d3d 52f8 79bd
00000110: 889a 633d d2e5 583d b02c a9bd 0bb6 95bd
00000120: 68cc 03bd e6a3 4bbd a659 d33c 3166 163d
00000130: ba2e 2ebd e7c6 99bd 13e1 953d a972 883d
00000140: 81d7 1c3d 6f09 f8bc d82c 943d a593 9d3d
00000150: 113e 1e3d 2339 0cbd e209 97bd fb3e fb3c
00000160: e1bc a8bd 1a3d a3bd 0da6 8d3d ac9c 3a3d
00000170: 81d9 d6bc fa74 f0bc 3bdc 95bd b51e 0f3c
00000180: c9ee b63d 6bc3 75bd c585 abbb 3ee2 9cbd
00000190: cb6d 4d3d c2e3 643c bde8 9a3b 9655 1cbd
000001a0: 6b71 68bd 0db5 c1bc 237d 0dbd 6cae a93c
000001b0: 2650 b7bd ca70 58bd 47b9 763d 03d2 a73d
000001c0: 936a b93d 4c09 bc3d 833b 953d 8b5e bb3d
000001d0: 21f1 643d ffc3 2bbc 52f2 bfbd 6aa7 9cbd
000001e0: b374 343d 508c 993b fe08 09bd 01d8 4bbd
000001f0: a553 9bbc b2d1 363d 09e0 233d 15f1 de3c
00000200: 6a16 c13c a6cd 5c3d 5ed6 a3bd 18e2 06bd
00000210: 48b0 bcbc 60b5 8c3c 7319 52bc 6d80 643d
00000220: ffae 103d 1424 5fbd d659 a1bd 3e69 43bd
00000230: a333 94bc 4159 23bd f7de 333b ceff 5dbd
00000240: 9162 8e3d 5828 4c3d 19bc 263d e4eb debb
00000250: 0f45 b1bd 4040 a6bd 68da 3e3c febb 90bd
00000260: ed8d 373d 5cf3 48bd e167 4b3d f554 47bd
00000270: f7f8 97bc 0aaf 903d 8eb9 cd3c 8758 91bd
00000280: 9c49 2fbd 9d54 8abc dd55 15bb b50a 92bc
00000290: 163e 5b3d 1124 0f3d 36a4 b6bd 0fd7 c5bc
000002a0: 4d86 203d 658a 593d d692 d7bd 5f36 7dbd
000002b0: a56f abbd 6dcf bb3d eced 8e3d b436 aebd
000002c0: a6e6 813d 02b6 b83d 3690 0c3c df8b 79bc
000002d0: 1724 2c3c f7e8 89bd 5f97 943d d400 01bd
000002e0: 48f9 29bd 64a8 9fbc 8535 75bc ab1b a7bd
000002f0: 6ba7 14bb cd0d 173c 6eea cd3b 0b2f 89bd
00000300: 6f6b 173d 1b74 68bd 3f61 c53d 2912 023d
00000310: 7ecd 5e3d b2e4 193d 0845 cebb 068d 06bd
00000320: 94d4 89bd 196a 97bd a1c4 ca3c 9e1f 0b3d
00000330: 4b88 3d3c 61e1 fc3b d913 443d 9931 08bd
00000340: 45f9 9b3c 253f 8f3d ee8b 293c 62b5 9d3d
00000350: 0f28 f03c f2a9 973b 07e9 33bd 4253 29bd
00000360: 8842 88bb d4c1 6abc cffa 2a3d dc93 ff3c
00000370: b074 8abd 95d9 1dbd e47a a2bb cc26 6ebd
00000380: 40fc 2fbd 2bdd b5bc 40da c63c fe26 de3c
00000390: 364d 853c 37c4 0dbd ce34 94bd 963b c53d
000003a0: 5e6c a73d bbc7 a83d 51ea 64bd e2b7 023c
000003b0: 4d2b 43bd a0f5 c13d 698c 763d 1b4c 463c
000003c0: 8670 0dbb 911b 623d 30a4 733d 758e f9bc
000003d0: f043 15bd 5bef 263d 1efd 813d 51c2 f43c
000003e0: b0f0 46bd ffcf e63c f130 b6bd 936d bbbd
000003f0: bea7 af3d 7bff 543d 1f25 3abd e6b5 a0bd
0.055960316 -0.07635564 -0.025117885 -0.016983448 0.050947312 -0.0043297964 0.045377694 0.068155564
0.068007804 0.07461234 -0.024410043 0.0636678 -0.052914247 0.075296074 0.06696278 -0.056718763
0.08312797 0.06913217 -0.05717382 0.070192024 -0.04312622 0.028232435 0.0045729293 0.03879625
0.051697813 0.07417543 0.045378573 0.06017693 0.024920234 0.028694509 -0.0052683344 0.003664603
0.002271457 -0.058863174 -0.056219425 0.03354952 0.027205829 -0.10500641 -0.10688408 -0.031083424
0.0020793488 0.003920675 -0.032941546 -0.07453909 -0.10001626 0.07722652 0.007758999 0.03965489
0.0055869115 -0.10024822 0.07213499 -0.03130713 -0.047703724 -0.044763785 -0.09985758 -0.0022145894
-0.0030615649 -0.044195384 -0.034461193 -0.0038576801 -0.028333176 0.023480484 0.047881912 -0.079636425
0.069652006 0.053507607 0.069063134 -0.061027832 0.055567294 0.05295355 -0.082604766 -0.073101126
-0.03217736 -0.049716853 0.025799584 0.03671855 -0.04252503 -0.07508641 0.0731832 0.06662495
0.038291458 -0.030277936 0.07235116 0.076941766 0.03863341 -0.034234177 -0.07374932 0.03066968
-0.08239151 -0.079706386 0.06916437 0.04555957 -0.02622676 -0.029352654 -0.07317396 0.0087353485
0.089322634 -0.06000082 -0.0052344524 -0.0766034 0.050153535 0.013970317 0.0047274516 -0.03816756
-0.05674879 -0.023645902 -0.034543168 0.020713054 -0.08950834 -0.05284194 0.060235288 0.081943534
0.090535305 0.09181461 0.072867416 0.09148892 0.05589402 -0.010483741 -0.09372391 -0.07649119
0.044056606 0.004685916 -0.03345584 -0.049766544 -0.018960783 0.044633575 0.04000858 0.027214566
0.023570258 0.05390706 -0.07999872 -0.032930464 -0.023033276 0.01717633 -0.01282345 0.05578654
0.03532314 -0.054477766 -0.07878463 -0.04770779 -0.018091029 -0.03988004 0.002744613 -0.054199032
0.06952394 0.049843162 0.040706728 -0.0068030227 -0.0865575 -0.081177235 0.011648752 -0.07067107
0.044813085 -0.04906021 0.049659614 -0.048665006 -0.018551333 0.07064636 0.025112893 -0.070969634
-0.04279481 -0.01688605 -0.0022786774 -0.017827371 0.053526007 0.034946505 -0.089180395 -0.0241504
0.03919058 0.0531105 -0.105260536 -0.06181943 -0.08370904 0.09170423 0.06978974 -0.085065275
0.06342821 0.0901909 0.008579304 -0.015231102 0.010506651 -0.06733888 0.07255434 -0.03149493
-0.0414975 -0.019489475 -0.014966373 -0.08159574 -0.0022682797 0.009219599 0.0062840497 -0.06698426
0.03696769 -0.05675135 0.09637689 0.0317556 0.05439519 0.037571616 -0.0062948503 -0.032849334
-0.06729999 -0.073932834 0.024751963 0.0339657 0.011568139 0.007717297 0.04787049 -0.033250425
0.01903976 0.06994466 0.010348303 0.07700612 0.029315976 0.0046284134 -0.043923404 -0.041339166
-0.004158322 -0.014328439 0.041743096 0.031198435 -0.067605376 -0.03853758 -0.0049584974 -0.05814247
-0.042965174 -0.022200188 0.024273992 0.027118202 0.016272169 -0.034610953 -0.07236634 0.09630506
0.08174966 0.082412206 -0.055887524 0.007978411 -0.047648717 0.094706774 0.0601925 0.012103106
-0.0021581962 0.05520207 0.059482753 -0.030463437 -0.036441743 0.04075561 0.063471064 0.029877814
-0.04856938 0.028175352 -0.088960536 -0.09151759 0.08576916 0.052001458 -0.045445558 -0.078471944

dense_block.layers.1.2.bias f4 [4]
00000000: e59b 063d 52e2 993d 7d46 853d 6b29 bd3d
0.032863516 0.0751387 0.06507585 0.092364155

dense_block.layers.2.0.weight f4 [16]
00000000: 5986 7d3f 16c9 823f 352e 803f cfc5 7e3f
00000010: 0c46 803f cb09 843f 8983 833f ebd0 7f3f
00000020: 96d3 7e3f 90ac 7c3f 0937 7b3f 47b6 7b3f
00000030: 2114 7d3f 399b 7a3f 25b2 7c3f 337e 7d3f
0.99033123 1.0217617 1.0014101 0.9952058 1.0021377 1.0315489 1.0274516 0.9992816
0.99541605 0.9870081 0.9813085 0.9832501 0.9885884 0.978931 0.98709327 0.9902069

dense_block.layers.2.0.bias f4 [16]
00000000: 19df f5bb 43b5 7c3c 60a2 87bb 6598 be3b
00000010: 494a a03c f177 363d a454 c03d 6c03 233c
00000020: 8b94 a7bb 6634 403c 1aa5 573a fac9 37ba
00000030: cc56 3d3c 6172 c73a 7006 3ebc 7df7 29bc
-0.007503402 0.015424076 -0.0041392297 0.0058165067 0.019566672 0.04454798 0.09391144 0.009949546
-0.0051141432 0.011731243 0.0008226201 -0.0007010993 0.0115563385 0.0015216583 -0.0115982145 -0.010373947

dense_block.layers.2.0.running_mean f4 [16]
00000000: 0785 1c3e f7cb d2be e106 a93e a9af c73e
00000010: 22d1 083f 3c3e a2be 2aa7 c8bd c918 9a3e
00000020: 1d69 373d fd4d 63bd 924c a9bd 7ee1 f73d
00000030: c106 743c dbdc 4c3d a779 283b 17ab 943b
0.15285121 -0.41171238 0.3301306 0.39001206 0.5344411 -0.31688106 -0.09797509 0.30097035
0.04477798 -0.055494297 -0.08266558 0.12103556 0.014894188 0.05001531 0.0025707276 0.004536997

dense_block.layers.2.0.running_var f4 [16]
00000000: 6138 b63c 6a65 fb3c 695b 3d3c 3c7d b93c
00000010: d0d2 243d 319c dd3b a728 363d 4443 dc3b
00000020: 0e81 fd3d 71ea 013e 7d87 9d3d a13c dc3d
00000030: 8a44 863d 82ae ee3d f159 f23d 7763 133e
0.02224368 0.030688006 0.011557438 0.022642724 0.04024011 0.006763004 0.044472363 0.006721886
0.12378131 0.12687089 0.07691858 0.107537515 0.065560415 0.116543785 0.11833561 0.14393412

dense_block.layers.2.2.weight f4 [4, 16, 3, 3]
00000000: 96b3 253d 7748 9fbc 675a b4bd 1ca6 0fbd
00000010: 5ddc 963d 3873 153d 9b20 13bd c75b 08bc
00000020: 7ad3 fc3c 3874 143d 0112 b73d 9984 e8bb
00000030: 1294 9bbc ceba 9a3b 5381 8ebd a0ce 0f3c
00000040: a015 243d 167c b03d 9cad 603d 8798 043d
00000050: 19eb 21bd fdd4 febc 564e ac3d 5f87 553d
00000060: f9b0 e93c 3c8e a4bd 440b 523d 6430 04bd
00000070: 34e6 9b3d 4213 8ebd f742 6fbd 8d09 44bd
00000080: 1526 903d 9e54 56bd bf2f f6bc 4838 593d
00000090: 677a 06bd 81b9 963a 29ad 8a3d 2a33 6c3d
000000a0: c636 983d f59f a6bd a39a 9ebd e858 74bd
000000b0: 51c7 a5bd 1214 8dbd ffc6 c3bd d351 4f3d
000000c0: 0b15 bebd 220a e6bc 95e6 88bb d8b6 733d
000000d0: 842c f3bc e5bc 90bd 7259 8fbc d3a5 af3c
000000e0: e556 07bd 7c3e 513d 8fbf 52bd 2576 643c
000000f0: c6b8 8cbd f071 ba3d 767f b43d 18e2 c5bc
00000100: e0c2 523d 4443 b6bc f291 c3bc e117 5c3d
00000110: 331e 9dbd ccb7 3cbc 1a2b e33c b1e2 eb3c
00000120: 9acc 9fbd 7a10 bebc 0d5f dd3a 88e5 04bb
00000130: a39c 03bd bc8e 813d fabe 7e3d 20c1 62bb
00000140: f53f 083d 6c62 653d 772c 9bbd baf9 6cbd
00000150: 0b12 e2bc 83dd 79bd b4fb 2fbd 75bb 393d
00000160: 2179 ac3d 28b6 7c3d 412d a53d 2f80 f5bc
00000170: de18 7dbd 978a 88bc b552 823d b7e9 013c
00000180: b36c e0bc d9e2 61bd 26f2 90bd df85 3f3d
00000190: 9a54 5739 583c 36bd 979e 9c3d 6eaa 83bd
000001a0: 4b70 95bd 8088 a13a 6efa 673d 011b 8dbd
000001b0: 4e32 303d 667f 093d 0c66 fe3a 00da 863a
000001c0: 8a20 b43d 9829 26bd 19bc 05bd 6818 023d
000001d0: 2cc8 89bd 6a7b 8fbd 7fc0 2e3d 97f0 3cbd
000001e0: 05db 2bbd 5b07 ee3c f2ad d8bb 748c 503d
000001f0: 4b44 7fbd b4d2 903d ed7e 4fbc 715e 943d
00000200: 279d 3abd 87ec b43d 2bd5 e93c 6fbe 2dbc
00000210: 26e7 2cbc 0a27 7dbd 558c 543c e3aa 283d
00000220: f04b b3bd ed6b 0e3b 82f2 583d c01a 8a3d
00000230: 4f15 69bd 7083 94bd e7e7 443c 95a9 4e3d
00000240: f3af fbbc f281 693c fc06 0dbc 8836 bc3b
00000250: d9a8 11bd e0b7 3d3d 38ba 0fbd c4b4 8a3c
00000260: ab04 1b3d d089 38bd 69f7 8e3b 4fba abbd
00000270: 459c 79bd 4ff0 89bd 1d3e 773d 4332 0a3d
00000280: e153 0e3c 2126 27bd a85d 753d aca6 553d
00000290: c462 953d 96e2 27bd 3424 09bd 73a1 91bd
000002a0: c203 e13a 133b 0abd b487 9e3d 7a71 093d
000002b0: ccf0 843d 0ada 1f3d 95b4 393d 19e1 7cbd
000002c0: d18a 673d a157 0cbd 3357 0f3d 1402 803d
000002d0: d626 15bd 1e32 cabc 07b7 a13c 399b 28bd
000002e0: cb8e 7bbd 3289 a93d 3522 623d cbcc 783d
000002f0: da68 a03d cde7 78bd ce82 5a3d 3b38 e2bc
00000300: d87d fbbb d8a7 5fbd 415d 83bc 3c85 31bb
00000310: d9fe 1fbd c5f6 65bd 3089 4dbd 5f11 323d
00000320: f7e6 103d 8604 763c 676f 30bd 5f7e b93d
00000330: ecbc 2fbd 6da5 81bd d1ec 9e3d c25d 843c
00000340: ac5e 253d 6168 10ba ff21 883d 0160 613d
00000350: 89e6 573d 9a09 e53c 5c20 7cbb f264 18bd
00000360: 8b8a 2d3d 3ed6 9ebd a1bf 1cbc 0b43 d7bc
00000370: 890e b5bc 3deb a0bd 190d a93d 9225 4abd
00000380: c186 7c3c 638a 0fbc 192d bd3a 020e 24bd
00000390: cca5 82bd 1299 2b3c 5e1b fdbc 1346 653c
000003a0: 2c74 af3d 2979 d8bb e8e6 3dbd 838b 7ebd
000003b0: fc8c 0fbd 44d9 3bbb 6199 00bd 9e92 943b
000003c0: b0cd bc3c 14ec 69bb 137d ad3d 611b 853d
000003d0: 18c6 1dbc 3e2f 9cbd 70fb 3cbd 2980 05bd
000003e0: 1928 d3bc 3613 05bd 747b 223d 671d 9bbc
000003f0: 08ec 19bd 28fc 83bd ced4 38bd 048e 53bd
0.04045447 -0.019443734 -0.088063054 -0.035070524 0.0736625 0.036486834 -0.035919767 -0.008322663
0.030862559 0.036243647 0.08938981 -0.007095885 -0.018991504 0.004721976 -0.069582604 0.008777291
0.040059686 0.086174175 0.054853067 0.032372024 -0.039530847 -0.03110742 0.08413379 0.052131053
0.02852677 -0.080349416 0.051280275 -0.03227271 0.07612267 -0.06937267 -0.058413472 -0.04786067
0.070385136 -0.05232679 -0.030052064 0.05303219 -0.032831576 0.0011499376 0.06771309 0.05766598
0.07432322 -0.08135978 -0.07744338 -0.0596551 -0.08094657 -0.06888594 -0.0955944 0.050615143
-0.092813574 -0.028081004 -0.004177878 0.059500545 -0.029684313 -0.07067279 -0.017498706 0.021441376
-0.033041853 0.05108498 -0.051452216 0.0139441835 -0.0687118 0.09103763 0.08813374 -0.024155661
0.05145538 -0.022248872 -0.023873303 0.05373371 -0.07671776 -0.01151843 0.027730513 0.028794618
-0.078026965 -0.023201216 0.0016889289 -0.0020278413 -0.032131802 0.063260525 0.06219385 -0.0034599975
0.03326412 0.056002066 -0.0757684 -0.057855345 -0.027596494 -0.061002266 -0.042964652 0.04534479
0.08421541 0.061697155 0.08065272 -0.02996835 -0.061791293 -0.016667647 0.06363431 0.007929257
-0.027395582 -0.05514798 -0.07077436 0.04675853 0.00020535514 -0.044491142 0.07647436 -0.06428991
-0.07296809 0.0012324005 0.056635313 -0.06889916 0.043016724 0.033568762 0.0019409074 0.0010288358
0.08795269 -0.04056701 -0.032650087 0.031761557 -0.06727633 -0.07005961 0.042664047 -0.04612788
-0.04195692 0.029056242 -0.006612533 0.050915197 -0.06232099 0.070714384 -0.012664539 0.07244576
-0.04556003 0.088341765 0.02854403 -0.010604485 -0.010553157 -0.06180481 0.012972911 0.041178595
-0.08754718 0.002173181 0.05296565 0.067433834 -0.056905087 -0.07251632 0.01201818 0.050454695
-0.030723548 0.014252173 -0.008607622 0.0057438053 -0.035561416 0.046317935 -0.0350897 0.016931899
0.03784625 -0.045053303 0.0043629897 -0.08385145 -0.060940046 -0.06735288 0.06036197 0.03373934
0.0086869905 -0.040807847 0.05990377 0.052160904 0.07294229 -0.040987574 -0.03348179 -0.07110872
0.0017167258 -0.033747744 0.07740727 0.033555485 0.06491241 0.039026298 0.045338232 -0.061738107
0.05652887 -0.034263257 0.03499527 0.06250396 -0.03641399 -0.0246821 0.019740595 -0.041163657
-0.061415475 0.08278121 0.055208404 0.06074218 0.07832499 -0.060767937 0.0533474 -0.027614703
-0.007674914 -0.054603428 -0.016035678 -0.002708747 -0.0390614 -0.05614354 -0.05017966 0.043473598
0.035376515 0.015015727 -0.04307499 0.090573065 -0.04290478 -0.063303806 0.07760013 0.016157988
0.04037349 -0.0005508718 0.06647109 0.055023197 0.05271009 0.02795868 -0.0038471436 -0.037205644
0.042368453 -0.07755707 -0.009567172 -0.026277086 -0.022101657 -0.07857368 0.08254451 -0.049352236
0.015412987 -0.008761021 0.0014432996 -0.04005242 -0.063792795 0.0104735065 -0.030896839 0.013993758
0.0856708 -0.0066062403 -0.046362787 -0.062144767 -0.035046563 -0.0028663436 -0.031396274 0.0045340797
0.023047298 -0.0035693692 0.08471122 0.06499363 -0.009629749 -0.07626198 -0.046138227 -0.032592926
-0.025775956 -0.032489024 0.039668515 -0.018934919 -0.037578613 -0.06444579 -0.04512482 -0.05164911

dense_block.layers.2.2.bias f4 [4]
00000000: c0f9 0ebd 4a1e 82bd 3e34 653d 49d6 4fbb
-0.03490615 -0.063534334 0.055958025 -0.0031713417

dense_block.layers.3.0.weight f4 [20]
00000000: 1527 803f 1e6b 853f c02d 7e3f c056 803f
00000010: cc18 813f d2df 833f 22a6 803f 86f4 803f
00000020: 92a5 7c3f f881 7c3f 8d16 803f 648a 793f
00000030: dfd0 7c3f 2f2c 7a3f 4144 803f 7700 7e3f
00000040: a6ed 743f 8a00 7a3f b3dc 7c3f 100f 803f
1.0011927 1.0423315 0.9928856 1.0026474 1.0085692 1.030268 1.00507 1.0074623
0.9869014 0.98635817 1.0006882 0.9747679 0.9875621 0.9772367 1.002083 0.9921946
0.9567512 0.9765707 0.9877426 1.0004597

dense_block.layers.3.0.bias f4 [20]
00000000: 8bc0 003c 3f09 813c f8fd 7dba 4362 983b
00000010: 26ec c73c afd2 0e3d 5aef c53c 9af2 c23c
00000020: 453f 643b 8128 b13c b375 e0ba 68dc 6ebc
00000030: 7c23 153b 3a50 693b 0f4b 7bbb da02 af3b
00000040: 5e25 0bbc 4fa4 adbb 0b7e 52bb 6a48 f03b
0.007858406 0.01575148 -0.00096890284 0.0046503856 0.024404597 0.034868892 0.024161983 0.023797322
0.003482775 0.02162576 -0.0017124921 -0.014578916 0.0022756746 0.0035600797 -0.00383443 0.005340916
-0.008492796 -0.005299128 -0.0032118584 0.007332851

dense_block.layers.3.0.running_mean f4 [20]
00000000: 0785 1c3e f7cb d2be e106 a93e a9af c73e
00000010: 22d1 083f 3c3e a2be 2aa7 c8bd c918 9a3e
00000020: 1d69 373d fd4d 63bd 924c a9bd 7ee1 f73d
00000030: c106 743c dbdc 4c3d a779 283b 17ab 943b
00000040: 5930 dcbd 39fc 25be 1e06 5d3d 500a fe3c
0.15285121 -0.41171238 0.3301306 0.39001206 0.5344411 -0.31688106 -0.09797509 0.30097035
0.04477798 -0.055494297 -0.08266558 0.12103556 0.014894188 0.05001531 0.0025707276 0.004536997
-0.10751409 -0.16209497 0.053960912 0.031010777

dense_block.layers.3.0.running_var f4 [20]
00000000: 6138 b63c 6a65 fb3c 695b 3d3c 3c7d b93c
00000010: d0d2 243d 319c dd3b a728 363d 4443 dc3b
00000020: 0e81 fd3d 71ea 013e 7d87 9d3d a13c dc3d
00000030: 8a44 863d 82ae ee3d f159 f23d 7763 133e
00000040: f4aa 0b3d dcff e13d 827e 083e 9cb6 033e
0.02224368 0.030688006 0.011557438 0.022642724 0.04024011 0.006763004 0.044472363 0.006721886
0.12378131 0.12687089 0.07691858 0.107537515 0.065560415 0.116543785 0.11833561 0.14393412
0.03409858 0.110351294 0.13329509 0.12862629

dense_block.layers.3.2.weight f4 [16, 20, 3, 3]
00000000: 30b1 d9bc bd7b f0bc 775b febc f4ac ecbc
00000010: 8b48 71bd b2dc 433d 97ce 19bd 8d90 9ebd
00000020: 7eb5 d33c dfb2 8b3d ffc1 b73c 3c1b 0c3d
00000030: 1779 af3c 2eaf 263d a4a7 353d 9f27 993c
00000040: d1a5 4dbd 3520 b4bc 0a91 113d f705 1abd
00000050: b071 10bd 9f76 123d cb87 d93b 05fc 2e3d
00000060: cf5c 803d 20c7 92bd 87ef 12bd 94ca 58bd
00000070: 5539 e9bc 4d2c 423d 5087 533d e88f e9bc
00000080: 87c0 943a f40b 53bd 00f4 97bd a3d1 0b3d
00000090: 5cc5 053c 30c7 463d 68ae 283d 0e4a 8f3d
000000a0: 7915 b9bb cbab d2bc 33ba 75bd 5856 1cbd
000000b0: 94eb 26bd eb22 03bd 8bdf 81bc 2e23 543d
000000c0: 9344 803d a3d1 973b af61 4e3d 5191 50bc
000000d0: c55c 8abd f770 36bd d479 2a3d f073 aa3d
000000e0: 7319 61bd 6858 713d 0cd9 37bd bc0e 423c
000000f0: 01d8 00bd 8568 8b3d d4af a3bc cb86 a93b
00000100: ad4f 3c3d cd00 8dbc d7c4 29bc 7342 a8bc
00000110: a9ca 9f3c ebef 70bd bb59 343c 4b7d 693d
00000120: cd46 5abd 2446 87bd 4723 113c 497c 9ebc
00000130: 9c73 84bd ddc3 34ba 3787 623d d2ce 443d
00000140: fee1 01bd 4787 783d 821c 993a 25fb 24bd
00000150: 9638 4cbd 6b8c 9d3c 2cff 17bd c808 583d
00000160: 8d1c 5abd fe23 52bd e64b f93c 3f3a 463d
00000170: ddbd bbbc cb5c 51bd 0eb5 14bd 0348 64bd
00000180: 2a60 a03d 17c6 75bc c91a 8f3d bc94 6e3d
00000190: 3e06 04bd f5a6 a73b 8561 353d 60d7 6f3d
000001a0: 592d d9bc bb2f 2d3d 6a35 5abd 9f62 4ebd
000001b0: 783e f0bc 74ea 523c 9d8d c7bc 5082 223b
000001c0: f8b8 6fbd 1aea 67bc ff34 553d 8d7a 84bd
000001d0: e398 703d e1a7 0d3d a6fd 143d 1c39 7ebd
000001e0: 1b07 2c3d c6f0 e03c ea88 b9bc b4b0 4f3d
000001f0: 92f4 0ebd 0ae4 88bc 118c e13c 782f 193c
00000200: 3c51 7c3c 1752 0ebd 29ea f63c 3714 19bd
00000210: 6110 233d c887 89bc 3f87 8f3b af05 913d
00000220: a2b6 05bc 8797 183d ee7e b2bb 55ff 043d
00000230: 8e98 103c c213 683d cabf 523d 1d4f 153d
00000240: 7da2 d4bc 3408 43bd 0b49 de3c f90a 893d
00000250: d4cd f63c 95e7 473d 801e 52bd 492a 493d
00000260: e6ee c93c 40e5 4cba 4b1b 0dbd 4956 78bd
00000270: 3517 62bd becc e23b dc1e 1f3d 7171 793d
00000280: 67ab 2c3d 8caa 223d 6c6e 5fbd 494c 59bd
00000290: 8767 84bd 83c1 7c3b e3fa 02bd 5694 5abd
000002a0: 60a3 84bd bd49 88bd 3753 0b3d 47d0 6e3d
000002b0: 6f98 5a3d fad5 c6bc 4289 33bd a399 b63b
000002c0: 5002 983c 11d6 f5bc ce72 353d 5db3 9039
000002d0: 1a11 e8bb 459b 613d bc92 73bd e957 833d
000002e0: d009 70bd 9810 6abd ef80 8db9 4eb4 883b
000002f0: e126 87bd d5e9 6b3d e7a2 433d f3fd dd3c
00000300: 7db0 49bd be18 81bd 5d4b 743d 7d47 78bd
00000310: 15e9 51bd 25d7 51bc ea2b 75bc 3dbb 8a3d
00000320: 1c4d 623b f2c3 7839 79fa c63c ae80 85bd
00000330: d0ff 87bd ff3b bfbb 0226 51bd d118 8bbd
00000340: fd2c 453c bb61 abbc edcf 6b3d 8411 a23c
00000350: df90 283c de16 553b d919 c83c c8f7 4c3d
00000360: 58c9 cfbc 88e9 92bd 4947 80bd 45e8 b73b
00000370: f386 813d 4477 49bc 80c6 b4bc 9f1f 5ebb
00000380: 764d 88bc 1206 b33c dea4 1ebc b12a b73c
00000390: e0fb 3ebd 17fb 9cbb 5255 543c 9350 5e3d
000003a0: 3d88 873d 3051 8d3d c18d 063d 2b37 8ebd
000003b0: b5dc 233d ba30 2cbc 19fb 873d d705 333d
000003c0: be6d c0bc 35a1 11bd 457a 17bd 0449 14bd
000003d0: 42a8 20bb f77a 09bc fbe5 f83c 1bc7 29bd
000003e0: 4223 80bc 1b60 5cbd 5498 023d 4dd7 773b
000003f0: 44c2 79bc 7a9a 273d b63e 1f3d d222 593d
-0.026573747 -0.029355878 -0.031049473 -0.028891064 -0.058907073 0.047817893 -0.037550535 -0.077424146
0.025843378 0.06821226 0.022431372 0.03420566 0.021420045 0.040694408 0.044349328 0.01869565
-0.050206963 -0.021988014 0.03553871 -0.037603345 -0.03526467 0.035757657 0.0066385022 0.042720813
0.06267702 -0.07166886 -0.035872962 -0.05292757 -0.02846972 0.04740553 0.051642716 -0.028511003
0.0011348882 -0.05152507 -0.07419586 0.034135472 0.00816473 0.048529804 0.04118195 0.06996547
-0.0056483117 -0.025716683 -0.059992027 -0.03816828 -0.04075201 -0.032015722 -0.015853664 0.051791362
0.062630795 0.004633145 0.050386127 -0.012729959 -0.06755976 -0.044541325 0.04162009 0.083228946
-0.05495591 0.0589222 -0.044884726 0.011844333 -0.031455997 0.06807045 -0.019981302 0.0051735393
0.045974422 -0.017212296 -0.010361872 -0.020539498 0.019505816 -0.058822554 0.011007722 0.057004254
-0.053290177 -0.06605175 0.008858508 -0.019346373 -0.06467363 -0.0006895641 0.055304732 0.0480488
-0.031709664 0.060675886 0.001168147 -0.040278573 -0.049858652 0.019231996 -0.037108585 0.05274275
-0.053249884 -0.051303856 0.030431699 0.04839539 -0.022917682 -0.051113885 -0.03630548 -0.05573274
0.07830842 -0.015000842 0.06987531 0.058247313 -0.032232516 0.0051163384 0.044282455 0.058555007
-0.026510881 0.042281847 -0.053273596 -0.05038702 -0.029326662 0.012873281 -0.024359519 0.002479691
-0.05852601 -0.014154935 0.052052494 -0.06468687 0.058739554 0.03458393 0.03637471 -0.062066182
0.041998964 0.02745856 -0.022648294 0.050705627 -0.03490121 -0.0167103 0.02753261 0.009349696
0.015400227 -0.034746256 0.030140953 -0.037372794 0.039810542 -0.016788378 0.0043801363 0.07081162
-0.008161219 0.037253883 -0.00544726 0.032470066 0.008825434 0.056659468 0.051452436 0.0364524
-0.025956387 -0.047615245 0.027134439 0.06691546 0.030127443 0.04880484 -0.05129862 0.049112592
0.024650048 -0.00078161433 -0.034449857 -0.060629163 -0.055197913 0.00692138 0.03884779 0.0608992
0.04215565 0.039713427 -0.054548666 -0.053051267 -0.06465059 0.003856749 -0.031977545 -0.05336412
-0.06476474 -0.066546895 0.034014907 0.058304098 0.05336803 -0.024271954 -0.04383207 0.005572514
0.01855579 -0.030009301 0.04429894 0.00027599456 -0.007082117 0.055079717 -0.05946611 0.06413252
-0.058603108 -0.05714473 -0.0002698968 0.0041718846 -0.065992124 0.057596046 0.047762778 0.027098631
-0.049240578 -0.06303547 0.059642185 -0.06061505 -0.051247675 -0.012807642 -0.014964083 0.06773994
0.0034530824 0.00023724118 0.024289357 -0.06518684 -0.06640589 -0.0058360095 -0.051061638 -0.06791843
0.012034652 -0.020920625 0.05757134 0.019783743 0.010288446 0.003251485 0.024426388 0.05004099
-0.025364563 -0.07173449 -0.062635966 0.0056124055 0.06324568 -0.012296502 -0.022067308 -0.003389336
-0.016638499 0.02185348 -0.009682862 0.022359224 -0.046626925 -0.0047906744 0.012959795 0.05427606
0.06617782 0.06900251 0.03285003 -0.06944116 0.040005405 -0.010509664 0.0663969 0.04370674
-0.02348983 -0.03555413 -0.03698184 -0.036202446 -0.0024514352 -0.0083911335 0.0303831 -0.041449647
-0.015641812 -0.05380259 0.031883553 0.0037817538 -0.01524407 0.040918805 0.038878165 0.053011723

dense_block.layers.3.2.bias f4 [16]
00000000: 76b7 a73b 177b a33c 8d22 343d 2bef 003d
00000010: e334 d3bc 2003 143d 00d6 793d 253a bc3c
00000020: 8677 99bd 42b9 e63c 5730 b43c af15 1d3d
00000030: c564 1abd e1bf 573d fc14 66bd 3496 94bc
0.005118306 0.019956155 0.043978263 0.03147809 -0.025782054 0.036135793 0.060995102 0.022976944
-0.074935004 0.02816451 0.021995706 0.038350757 -0.037693758 0.052673224 -0.056172356 -0.018138029

bottleneck_conv.weight f4 [64, 36, 1, 1]
00000000: b4b3 8dbd 09de 3f3d fa58 e23d 71a3 1abe
00000010: e6ef 9bbd 6dbc f1bd 5e21 1dbe ac61 6d3d
00000020: 6d83 f0bd 9305 043e e8f3 9b3d 57a8 f5bd
00000030: 851b 2d3d c1a2 553d f50d 783d 8d76 0fbd
00000040: edd1 d93d 41be dfbc abcb dd3d ad7f e2bd
00000050: 3f8b 0abe 8f46 2fbd f871 703d 2020 93bb
00000060: 097d fbbd 8a51 8f3d 0755 8fbc 4c3b 2fbb
00000070: 3f6a 123e b41b 57bc 18a6 363c 20d6 d8bd
00000080: 7a2c 0dbe 7e5f 81bd 0bca 873d 0909 0dbe
00000090: d2c2 e5bd ffee 24be abcd 09be 20c6 1d3e
000000a0: 1a4f f6bd 915e 453d 672d 22be d252 70bd
000000b0: 032c 89bd 0828 b63c c136 ac3d 8fa4 1f3e
000000c0: 1376 1dbe 0b36 ffbd 78c5 dfbc 7aa6 a73d
000000d0: 6477 0a3e ee65 a2bd d7de c63c 5c37 f43d
000000e0: 9c22 6abd 3460 d43d af1f ce3d 7ff4 eabb
000000f0: 3977 e4bd d35a c13d af7d 983d ca30 95bd
00000100: 584a ecbd 238f 29be 54cf 943d ab05 b53d
00000110: fac4 1cbe 7b5a 833d c9a4 29be afc0 ddbd
00000120: ef00 12be 8240 b03d 6321 bc3d c065 cc3d
00000130: 78b9 c9bd d375 88bd e680 d13d 8c17 72bb
00000140: 1841 d53d 89e7 60bd 5144 abbd 55de d43d
00000150: 843c 3d3d 3553 173e 6213 d23d 2917 c9bd
00000160: e29f abbd 3588 7bbd 3cc4 c4bd beea f2bd
00000170: 1a58 37bd 511e 233e cc73 d63d 4749 8f3c
00000180: be3e 963d 8d2f f9bd 04bb f03d 4c4c 5b3b
00000190: 3919 b6bc 504c 96bd f0ea 863c 9f1c 0f3e
000001a0: 7a0e dd3c 814c 7cbc 5808 02bd 3f5f cc3b
000001b0: 25de bd3b e492 19be b68e 4ebc ddc9 9b3c
000001c0: 7494 29be a7ce 00be 934c 233e f3b8 083e
000001d0: 9c6b ac3d 302d 1bbd 2017 0dbe 407f 1ebe
000001e0: fdb9 c53d 54a6 153e 631f dfbb 55a5 21be
000001f0: 60b5 d4bd ff32 ebbd 4295 49ba b29a 11be
00000200: c6e7 c0bd e360 02be 1e55 fa3d e2b2 343d
00000210: 8475 893d a001 1b3e 983b e3bd 0bbc fd3c
00000220: 7e0a 113d d4f4 e9bd 2709 bdbd ef08 d53d
00000230: 4a16 f73d 00cb 173e 5296 33bd 5ec3 953c
00000240: 2453 0a3d 1a0e 303d 4b81 873b 5b17 273c
00000250: 7da0 113d e783 03be a0da 853d bea1 eb3d
00000260: 722b e8bd 47c5 2ebe edf0 71bd 265d 223e
00000270: 463d 1e3d 0ade 27bd b48c 7bbd dce6 893d
00000280: 4fed 023e 5307 203e 3609 b23d 4a6b 1bbe
00000290: 80da 9bbd 22f7 233e 6072 133e 05c3 ce3d
000002a0: 1f3e 113e f238 d9bd 3949 b73d caf7 e93d
000002b0: 1fa6 0c3e a282 f6bd ecbd aabd 5b1a bd3d
000002c0: dbd7 77bd f4fb 20be 15cb f73c 674f 04bd
000002d0: f125 893d 5e15 983d e96f 273e 3b44 0c3d
000002e0: 5ee2 f6bd 4990 dabd 98ed f33d 841b 463d
000002f0: 1528 33be abf1 9abd c959 a23d edca e23d
00000300: 1b8e 093e 002b 203e b668 9cbc 5e1a e43d
00000310: 7e5c 003e cd6c 4e3d 3c85 08bd c951 eebd
00000320: ad85 783d 40a0 ba3d 9651 193e 23a9 f5bd
00000330: e3bc b93d 630c fb3d 0534 edbd c56c 663d
00000340: effe 293d c9b2 ffbd 6396 84bd 8c2e 85bc
00000350: 097b 0cbe defa 08bd 9e45 7f3d d589 013e
00000360: cdee 80bd 2798 36bd 5437 e23d 7316 0bbe
00000370: 7a3b b4bd 65ab 8cbd a44e a63c 4579 033e
00000380: a7b6 0bbe 0ab5 dfbd ab39 083e f071 bfbc
00000390: 30f9 efbd 58b9 a7bd a35d b33c a75d 2ebd
000003a0: e404 cbbd 4726 fc3d 14d8 1d3d a707 113d
000003b0: ab14 51bd 1f7b 153e 7aad a33d 3be2 013c
000003c0: 20cc 2abd af22 ae3d 4043 0c3e e048 c5bc
000003d0: 09fb 05be 20fd 973d aba9 1d3e aad7 9b3c
000003e0: 4105 4d3d bc67 1a3e bd53 4cbd f87e 00be
000003f0: ae42 b6bd 157c acbc a46c 353d 689f 47bb
-0.06919041 0.04684261 0.11052127 -0.1510141 -0.07614116 -0.118035175 -0.1534476 0.057954475
-0.117438175 0.12892751 0.07614881 -0.11994999 0.042262573 0.052157167 0.060560185 -0.03502517
0.10635743 -0.0273124 0.10829862 -0.110595085 -0.1352968 -0.0427919 0.05870244 -0.0044899136
-0.12279708 0.06997974 -0.017496599 -0.0026738225 0.14298342 -0.0131291635 0.011147998 -0.10587716
-0.13786498 -0.06317042 0.066303335 -0.13772978 -0.112188 -0.16106795 -0.13457362 0.1540761
-0.12026806 0.04818589 -0.15837632 -0.058672734 -0.06697848 0.022235885 0.08408881 0.15590118
-0.15377073 -0.1246148 -0.02731584 0.0818605 0.13522106 -0.07929598 0.02427618 0.119246215
-0.057161912 0.10369912 0.10064637 -0.0071702595 -0.111555524 0.094411515 0.07445847 -0.072846964
-0.115376174 -0.16558509 0.07266107 0.08838972 -0.15309516 0.06413742 -0.16566767 -0.10827767
-0.14258169 0.08606054 0.091860555 0.09980345 -0.098498285 -0.06663098 0.102296636 -0.0036940305
0.10412806 -0.05490831 -0.0836264 0.10393969 0.04620029 0.14777835 0.10257603 -0.098188706
-0.083801046 -0.061409194 -0.09607741 -0.1186118 -0.044761755 0.15929534 0.10471305 0.017490996
0.07336186 -0.12167273 0.117544204 0.0033462225 -0.022228824 -0.07338774 0.016469449 0.13975762
0.026984442 -0.015399099 -0.03174624 0.00623694 0.005794304 -0.1499744 -0.012607267 0.019017154
-0.16560537 -0.12578832 0.1594718 0.13351803 0.08418962 -0.03788489 -0.13778353 -0.1547823
0.09654615 0.1461423 -0.0068091615 -0.15785725 -0.10386157 -0.11484336 -0.00076897827 -0.14219168
-0.09419207 -0.12732272 0.12223266 0.04411591 0.067118675 0.15137339 -0.11095351 0.030973455
0.035410397 -0.114236504 -0.09230261 0.104020946 0.12064798 0.14823532 -0.04384453 0.018281635
0.033770695 0.0429822 0.004135286 0.0101984395 0.035553444 -0.12843286 0.0653584 0.11505459
-0.113364115 -0.17067443 -0.059067655 0.15855846 0.038632654 -0.040983237 -0.06141348 0.06733486
0.12785839 0.15627794 0.08693163 -0.15177646 -0.07610035 0.16012242 0.143991 0.10095791
0.14183854 -0.106065646 0.08949513 0.11424215 0.13735245 -0.12036635 -0.08337006 0.092335425
-0.06050859 -0.15721112 0.030248204 -0.032302286 0.0669669 0.074259505 0.16351284 0.034244757
-0.12054895 -0.106720515 0.11910552 0.048366085 -0.17495759 -0.07565626 0.079272814 0.11073861
0.13433115 0.15641403 -0.019092899 0.11137842 0.12535283 0.05039673 -0.033330187 -0.11636693
0.06067436 0.091125965 0.14972529 -0.11995151 0.090692304 0.12258222 -0.115821876 0.056256074
0.04150289 -0.124852724 -0.064739965 -0.016257547 -0.13718809 -0.03344237 0.06232225 0.12650235
-0.06295548 -0.044578698 0.11045709 -0.13582782 -0.08800407 -0.068686284 0.02030117 0.1283923
-0.13643895 -0.10923202 0.13303249 -0.02336976 -0.117174506 -0.081896484 0.021895235 -0.042569783
-0.09913042 0.12311988 0.038536146 0.03540769 -0.0510451 0.14597748 0.079920724 0.007927473
-0.041698575 0.08502709 0.13697529 -0.024082601 -0.13084044 0.07421327 0.15396754 0.019023735
0.05005384 0.15078634 -0.049884547 -0.12548435 -0.08899437 -0.02105526 0.04429306 -0.0030460004

bottleneck_conv.bias f4 [64]
00000000: d4f1 5d3d 2777 00bc c888 0c3c 644b 9abd
00000010: 8fa4 cdbc 580f a7bd dcc4 193e b552 403c
00000020: c72e 59bd b781 bb3d f294 23be 7444 28be
00000030: 3838 873c 63f7 d93d bf9f ba3d b85a 7fbd
00000040: 6900 183a 8e92 16be 8e13 093e 0e00 83bd
00000050: fada 143e 59cf 0f3e 0ff8 eebc f2dd c6bd
00000060: e10a b63d 0ef3 1a3c 7ae4 123e ad99 d5bc
00000070: 5c5a 013e aa2d bcbd fe82 babd 4cca 65bd
00000080: 7ebf 19be be49 f43d 6751 883d c3d2 c03d
00000090: 2012 2b3e 0c9f 28bc 0481 59bc d62e 38bd
000000a0: ad97 17be 7677 bc3c fd0b 89bd 9a84 153e
000000b0: b62d 333d 956e adbd 0360 83bc 60ac c03d
000000c0: e22a 0ebe fa36 dfbc 39c3 8c3d 04e7 263d
000000d0: 3dbc ddbd b98f 0d3e 6aec 2cbb 99eb 9d3c
000000e0: 1155 0c3e 181b 0b3c 4509 fdbd 5f12 fb3d
000000f0: 5dd2 0c3e 4ba8 1e3e 8e66 233d 68a4 ed3d
0.054185703 -0.007840908 0.008577533 -0.07533911 -0.025102882 -0.081572235 0.15016502 0.011738469
-0.053023126 0.091556005 -0.15974787 -0.16432363 0.0165063 0.106428884 0.091125004 -0.062342376
0.0005798401 -0.14704344 0.13386366 -0.06396495 0.14536658 0.1404394 -0.029171018 -0.097103015
0.08888794 0.009457363 0.1434497 -0.026074255 0.12632126 -0.09188397 -0.09107016 -0.05610113
-0.15014455 0.11928128 0.06656151 0.094151996 0.16706133 -0.010291826 -0.013275389 -0.04496654
-0.14803953 0.023006182 -0.0669174 0.14601365 0.043744765 -0.084683575 -0.016036993 0.09407878
-0.13883546 -0.027247895 0.06873173 0.040747657 -0.10826919 0.13824357 -0.002638603 0.01927738
0.13704325 0.008490346 -0.12355284 0.122593634 0.13752122 0.15493886 0.039892726 0.11603624
