WatermarkRemoval/results/model_epoch_1.onnx (onnx, 485026 bytes, 36 tensors)

initial_conv.weight f4 [8, 3, 3, 3]
0.061162215 -0.19327973 0.11065779 0.040221155 -0.17155261 -0.036421522 0.08689783 -0.017305298
0.1213921 -0.100509025 0.1561929 0.025668398 0.167627 -0.17476977 -0.122393735 0.104511306
-0.16905212 -0.063114084 0.19364208 -0.026606869 -0.062634476 -0.05690579 0.1658136 0.17768796
0.07136925 -0.026381707 0.19137178 -0.14291115 -0.14038664 -0.19477075 0.10770059 -0.19235316
0.14426209 -0.009844546 -0.009811811 0.1439091 -0.18272068 -0.0034650392 -0.11724488 0.18431264
0.12949629 -0.1487499 0.06500516 -0.14900382 -0.042317145 -0.053991396 0.009556626 -0.15496482
-0.038628645 0.07022364 0.18953599 0.020840412 -0.0338119 -0.089490175 0.089235514 0.05343411
0.041157156 -0.13096668 0.15008351 -0.13613161 0.12485755 -0.069163285 -0.08051744 -0.18715881
0.038496736 0.15556367 0.13843243 0.08102065 -0.034481686 0.019867428 0.1592542 0.15170854
-0.0846846 -0.17102586 -0.09388088 -0.020983199 -0.13693711 0.117424585 -0.06539727 0.18492705
0.11727434 0.17278966 0.059799325 0.17461683 -0.119299114 -0.15598439 0.16879591 -0.13478097
-0.048558414 0.07000096 0.04733876 0.10767522 -0.041759767 -0.07432154 0.084247 -0.17314768
0.119090855 0.113671795 0.054961838 -0.0019091141 0.12656723 0.18647116 -0.085972905 -0.0412769
-0.17386296 0.16642393 -0.0031972805 -0.048398443 -0.017738879 0.06789255 0.108193055 -0.0494967
0.17799257 0.10744235 0.051200613 0.004365422 0.17476943 0.058453985 -0.13768634 0.022630034
0.016287172 0.089546256 0.12605289 -0.043364916 -0.18461643 -0.14482263 0.018808238 0.022667358
0.06477881 0.03399708 0.14112929 -0.11941076 0.113468595 0.15977237 -0.07223763 0.18623796
0.041524183 -0.008711523 -0.038135286 0.03928738 0.0061321505 -0.12703887 -0.061752614 -0.022809688
-0.17915785 -0.19286597 0.07160126 0.078084596 0.049638864 0.04145167 0.17619787 -0.19141111
-0.18460558 0.16566388 -0.0064161536 0.003894856 -0.14971538 -0.028005272 0.04564171 0.160675
-0.10840099 0.047520295 0.16962238 0.11779055 -0.084341176 0.031009274 0.05075312 0.18748966
-0.08495804 0.13237073 -0.08361259 -0.15047586 -0.17291535 -0.0059442804 -0.13458751 -0.03582353
0.019669982 0.119474225 -0.123010375 0.0070763477 -0.17656429 -0.012769326 -0.15793742 -0.18405026
0.1373279 -0.17882077 0.03866659 -0.17436117 0.04967183 -0.037978895 -0.1334364 0.026354866
0.12880956 -0.073440544 0.19723533 -0.04968726 0.009705712 0.19288714 -0.0575751 0.14845233
0.14510874 -0.01987364 -0.13941658 -0.15854849 -0.014164125 -0.045470238 0.1153884 0.11212179
-0.086128525 0.06798836 0.01684972 -0.16189831 0.10040953 0.08145163 0.012041173 -0.16486244
00000000: 3b85 7a3d 1feb 45be 8da0 e23d f0be 243d
00000010: 7dab 2fbe bc2e 15bd 7df7 b13d d7c3 8dbc
00000020: 6c9c f83d add7 cdbd 08f1 1f3e 8846 d23c
00000030: 6aa6 2b3e d9f6 32be 91a9 fabd 060a d63d
00000040: 001c 2dbe f541 81bd 1c4a 463e a6f6 d9bc
00000050: 8146 80bd 0c16 69bd 0acb 293e d5f3 353e
00000060: 0b2a 923d 731e d8bc f7f6 433e 4d57 12be
00000070: 84c1 0fbe fc71 47be 2092 dc3d 3af8 44be
00000080: 71b9 133e 054b 21bc b8c1 20bc e85c 133e
00000090: 211b 3bbe b615 63bb 151e f0bd 74bc 3c3e
000000a0: ad9a 043e e551 18be 6d21 853d 7594 18be
000000b0: be54 2dbd 1526 5dbd 6593 1c3c 19af 1ebe
000000c0: 1239 1ebd 69d1 8f3d b915 423e 83b9 aa3c
000000d0: 597e 0abd a046 b7bd 1cc1 b63d badd 5a3d
000000e0: 6894 283d 211c 06be 7eaf 193e 1666 0bbe
000000f0: 51b5 ff3d 7ba5 8dbd 54e6 a4bd 8fa6 3fbe
00000100: c1ae 1d3d 154c 1f3e 3bc1 0d3e 28ee a53d
00000110: ab3c 0dbd 04c1 a23c 8813 233e 7c59 1b3e
00000120: 1f6f adbd 6721 2fbe 9e44 c0bd f5e4 abbc
00000130: 3e39 0cbe 4d7c f03d 01ef 85bd 845d 3d3e
00000140: 872d f03d c6ef 303e 23f0 743d c1ce 323e
00000150: 1853 f4bd 5fba 1fbe d6d8 2c3e 0604 0abe
00000160: 30e5 46bd aa5c 8f3d 4ae6 413d d384 dc3d
00000170: 4a0c 2bbd e435 98bd b189 ac3d a04d 31be
00000180: e8e5 f33d c2cc e83d aa1f 613d 3d3b faba
00000190: d79a 013e 4cf2 3e3e 9012 b0bd f711 29bd
000001a0: 2209 32be 096b 2a3e 7789 51bb 723d 46bd
000001b0: 2051 91bc 400b 8b3d 5294 dd3d 0dbd 4abd
000001c0: af43 363e bc0a dc3d bcb7 513d d00b 8f3b
000001d0: c2f6 323e 726d 6f3d a6fd 0cbe 9f62 b93c
000001e0: ad6c 853c 0764 b73d 0214 013e 699f 31bd
000001f0: 170c 3dbe 624c 14be bc13 9a3c e5b0 b93c
00000200: c1aa 843d 8640 0b3d 3284 103e a18d f4bd
00000210: 3962 e83d 5e9b 233e 53f1 93bd 2ab5 3e3e
00000220: 4315 2a3d c7ba 0ebc bf33 1cbd ceeb 203d
00000230: 35f0 c83b 7a16 02be 4ff0 7cbd 62db babc
00000240: 2875 37be a87e 45be aea3 923d d1ea 9f3d
00000250: 1f52 4b3d 3ac9 293d 376d 343e 4601 44be
00000260: 3f09 3dbe cba3 293e 993e d2bb d740 7f3b
00000270: fd4e 19be 506b e5bc cdf2 3a3d fd87 243e
00000280: 5701 debd a4a4 423d 7db1 2d3e 2c3c f13d
00000290: 11bb acbd 2907 fe3c 81e2 4f3d 4afd 3f3e
000002a0: 7bfe adbd 318c 073e 143d abbd 5816 1abe
000002b0: b910 31be 3dc8 c2bb 4fd1 09be b2bb 12bd
000002c0: f122 a13c e7ae f43d ddec fbbd b5e0 e73b
000002d0: 45cd 34be 6f36 51bc 59ba 21be ac77 3cbe
000002e0: af9f 0c3e cb1c 37be dc60 1e3d bc8b 32be
000002f0: b074 4b3d c28f 1bbd 8da3 08be 29e6 d73c
00000300: a7e6 033e ff67 96bd 0ff8 493e de84 4bbd
00000310: b504 1f3c 3584 453e ded3 6bbd e303 183e
00000320: 6397 143e 0bce a2bc 38c3 0ebe 895a 22be
00000330: a510 68bc 003f 3abd c150 ec3d 1ca0 e53d
00000340: 2764 b0bd 7b3d 8b3d 6d08 8a3c acc8 25be
00000350: 83a3 cd3d 1dd0 a63d 5748 453c b3d1 28be

initial_conv.bias f4 [8]
-0.05249317 -0.11699644 0.16354762 0.1390578 0.18756685 -0.19167772 0.17663752 0.1712323
00000000: 1403 57bd d49b efbd 0779 273e 2b65 0e3e
00000010: 8611 403e 2a47 44be 77e0 343e 8557 2f3e

dense_block.layers.0.0.weight f4 [8]
1.0059421 0.9977355 1.0020843 0.98831004 1.0046301 1.0312455 0.99816483 0.99604493
00000000: b6c2 803f 986b 7f3f 4c44 803f e301 7d3f
00000010: b897 803f daff 833f bb87 7f3f cdfc 7e3f

dense_block.layers.0.0.bias f4 [8]
0.025034655 0.0021752203 0.01963917 -0.0046372064 0.021727346 0.04596355 0.03126768 0.031652432
00000000: 7a15 cd3c 248e 0e3b 53e2 a03c b5f3 97bb
00000010: 8cfd b13c 4744 3c3d 8a12 003d fba5 013d

dense_block.layers.0.0.running_mean f4 [8]
0.11975692 -0.39185208 0.34334147 0.37161428 0.52758956 -0.273913 -0.08867748 0.26680413
00000000: 1e43 f53d d6a0 c8be 74ca af3e 3a44 be3e
00000010: 1c10 073f 533e 8cbe 8a9c b5bd 8d9a 883e

dense_block.layers.0.0.running_var f4 [8]
0.017075736 0.028112218 0.013288545 0.020442912 0.040278375 0.0036996547 0.042873017 0.004325814
00000000: 6ae2 8b3c 984b e63c 33b8 593c e577 a73c
00000010: f0fa 243d e875 723b 9e9b 2f3d 8fbf 8d3b

dense_block.layers.0.2.weight f4 [4, 8, 3, 3]
-0.056853645 0.008899263 -0.00041344337 0.051176243 -0.015736578 0.09598457 0.032283675 0.106558695
0.04243565 -0.110919446 0.105165794 -0.06841062 0.014620276 -0.108506076 -0.11627268 -0.060679022
0.051016245 -0.114485905 -0.06513361 0.074134104 0.062203776 -0.010288621 -0.08369278 -0.11202999
-0.040996812 0.020514244 -0.031160142 0.012955992 -0.017466653 0.045285754 -0.04056675 -0.023542756
-0.048558537 -0.07406232 -0.079568364 0.061879363 -0.06627086 0.037555307 0.02604489 0.05094123
0.082094714 0.09354709 -0.10100453 0.05069688 0.09003126 0.028830407 0.02303447 0.046791393
0.067597575 -0.09680577 -0.018383462 0.0146116335 0.079755835 0.0058222464 -0.09280041 -0.061229557
0.08587988 0.10244651 -0.07705659 0.09725139 -0.049561683 -0.0744444 -0.05714949 -0.026224462
-0.027057158 -0.122895695 -0.032127935 -0.04879089 0.036276255 0.09935751 0.10411924 0.09925113
0.03864959 -0.04766343 -0.087889016 -0.027175676 0.018587304 0.0922324 -0.027850688 -0.1031867
0.011578155 -0.09225009 0.019337226 -0.034567088 -0.063749015 0.035826284 0.036423963 0.03864511
-0.078871116 -0.062502265 0.07193913 0.009268036 0.04815885 0.075867705 0.016147738 0.064908706
0.023196075 0.1140885 -0.053241372 0.103464685 0.054303456 -0.06701254 0.05395985 -0.10159011
0.020422053 0.0067455675 -0.07214761 -0.0049395086 -0.09630767 0.05114114 -0.05472241 -0.11793853
0.07056519 -0.015458694 0.0799742 -0.02475218 -0.059308093 0.004714043 -0.044295404 0.0026172525
-0.084795825 -0.02133758 -0.11234265 0.05542611 -0.012346777 -0.01747185 0.019991325 -0.053014636
0.08964551 0.08855202 0.046245854 -0.03809432 0.10496818 0.017497832 -0.036296092 0.09011908
0.11232026 -0.01786 0.008480887 0.09565565 -0.103846356 0.0461239 0.021303894 -0.083582126
-0.0997341 0.03514164 0.06051209 -0.0009101324 0.033013854 0.01060016 -0.11795031 -0.098148175
0.08304519 0.032696787 0.015105693 0.008358925 -0.035799723 -0.03871543 0.06662197 0.054164827
0.002959116 0.01086828 -0.0776021 0.029524937 0.10649755 -0.10097599 -0.029531537 -0.039653044
-0.011478633 0.096856214 0.029257378 0.09267232 0.10033573 0.10979722 -0.08010498 -0.045667883
0.03334957 -0.077792905 0.046242785 0.019925145 -0.10898746 0.106693834 0.01939554 -0.0794181
0.099115804 0.04251813 0.0021707697 -0.057005987 0.01845955 -0.0047709513 -0.07800858 0.019645257
-0.076771095 -0.013429222 -0.01894086 -0.026257219 0.054635905 0.05711031 0.049633555 -0.05232902
-0.073209606 0.0008579412 0.05691694 0.007994731 0.0111756725 0.115137346 0.04940705 -0.01735443
-0.034318827 -0.09995064 -0.06463458 -0.100383244 0.007875865 0.008437058 -0.12049999 -0.015357783
0.11839029 -0.028891053 0.049166214 0.10112927 0.086334474 0.010914147 -0.01676533 0.06616007
-0.08741367 0.032672107 0.079234764 -0.009054396 0.008901954 -0.036457263 -0.0045943274 -0.006368706
0.10035494 0.043142844 0.08517469 -0.10535046 0.020223355 0.09741137 -0.0010475921 0.08569674
0.053707596 -0.020957492 -0.05030734 -0.02834396 -0.0033496623 0.044706333 -0.11230113 -0.10853508
-0.043846715 -0.11070096 0.07087485 -0.015885575 -0.0963201 0.06999153 -0.021169618 0.099850714
00000000: 5edf 68bd 37ce 113c 6ec3 d8b9 2e9e 513d
00000010: ffe9 80bc 8f93 c43d e33b 043d 723b da3d
00000020: 01d1 2d3d bc29 e3bd 2a61 d73d de1a 8cbd
00000030: e289 6f3c 6f38 debd 5f20 eebd 918a 78bd
00000040: 69f6 503d 9677 eabd c564 85bd 9fd3 973d
00000050: 63c9 7e3d 9b91 28bc 1f67 abbd fb6f e5bd
00000060: 46ec 27bd 7d0d a83c 8e43 ffbc 5e45 543c
00000070: 3a16 8fbc 8e7d 393d 5229 26bd bddc c0bc
00000080: 51e5 46bd fcad 97bd bdf4 a2bd 3775 7d3d
00000090: 04b9 87bd 98d3 193d 185c d53c c0a7 503d
000000a0: 4621 a83d 9e95 bf3d 77db cebd 88a7 4f3d
000000b0: 4f62 b83d bf2d ec3c c9b2 bc3c 55a8 3f3d
000000c0: 9970 8a3d 1b42 c6bd ea98 96bc a265 6f3c
000000d0: 0757 a33d 8bc8 be3b 240e bebd d8cb 7abd
000000e0: cae1 af3d 7acf d13d d8cf 9dbd bd2b c73d
000000f0: 3101 4bbd 4e76 98bd 9515 6abd afd4 d6bc
00000100: f9a6 ddbc bdb0 fbbd 9598 03bd f5d8 47bd
00000110: 6996 143d f37b cb3d 783c d53d 2d44 cb3d
00000120: 084f 1e3d bb3a 43bd 28ff b3bd 869f debc
00000130: 6744 983c 57e4 bc3d 2027 e4bc 8c53 d3bd
00000140: 4db2 3d3c 9ded bcbd 1a69 9e3c 3896 0dbd
00000150: d88e 82bd 95be 123d 4b31 153d 564a 1e3d
00000160: 2e87 a1bd 3001 80bd d354 933d f6d8 173c
00000170: 3742 453d 8760 9b3d 4348 843c dbee 843d
00000180: b205 be3c 3ba7 e93d a013 5abd 4be5 d33d
00000190: 4d6d 5e3d df3d 89bd 0105 5d3d 7a0e d0bd
000001a0: 264c a73c ec09 dd3b 20c2 93bd 9adb a1bb
000001b0: f53c c5bd 5f79 513d 9b24 60bd c289 f1bd
000001c0: 7b84 903d 7646 7dbc 83c9 a33d 15c5 cabc
000001d0: 0bed 72bd 4278 9a3b 196f 35bd 3686 2b3b
000001e0: 6fa9 adbd 26cc aebc e713 e6bd 7d06 633d
000001f0: 234a 4abc 2021 8fbc d9c4 a33c e025 59bd
00000200: 1198 b73d c35a b53d 4b6c 3d3d ca08 1cbd
00000210: 8ff9 d63d 9d57 8f3c 36ab 14bd 5a90 b83d
00000220: 2a08 e63d 224f 92bc 6bf3 0a3c 1ce7 c33d
00000230: 66ad d4bd 6aec 3c3d 8185 ae3c 1b2d abbd
00000240: 6441 ccbd aef0 0f3d 86db 773d f495 6eba
00000250: 8939 073d 4bac 2d3c ef8f f1bd e901 c9bd
00000260: 9913 aa3d 11ed 053d de7d 773c dff3 083c
00000270: bba2 12bd 1294 1ebd 1971 883d f0db 5d3d
00000280: baed 413b df10 323c daed 9ebd 48de f13c
00000290: 631b da3d 80cc cebd 1fec f1bc 3b6b 22bd
000002a0: e010 3cbc 8d5c c63d 2bad ef3c fcca bd3d
000002b0: d27c cd3d 5ddd e03d 140e a4bd 3f0e 3bbd
000002c0: 8f99 083d e351 9fbd 1369 3d3d 0f3a a33c
000002d0: d134 dfbd 4c82 da3d 65e3 9e3c f5a5 a2bd
000002e0: 3afd ca3d 7e27 2e3d 7943 0e3b 1c7f 69bd
000002f0: 7b38 973c a455 9cbb f6c2 9fbd 17ef a03c
00000300: 2a3a 9dbd 3d06 5cbc dd29 9bbc 6119 d7bc
00000310: e6c9 5f3d 80ec 693d 8e4c 4b3d f456 56bd
00000320: ebee 95bd 76e7 603a bd21 693d 55fc 023c
00000330: 2b1a 373c 21cd eb3d 0c5f 4a3d e12a 8ebc
00000340: e691 0cbd ecb2 ccbd 225f 84bd bb95 cdbd
00000350: c609 013c 963b 0a3c b3c8 f6bd 369f 7bbc
00000360: 9c76 f23d eeac ecbc 8362 493d dd1c cf3d
00000370: 21d0 b03d 40d1 323c 7257 89bc ee7e 873d
00000380: f005 b3bd 30d3 053d d645 a23d e458 14bc
00000390: 80d9 113c 3654 15bd 038c 96bb 94b0 d0bb
000003a0: e486 cd3d 8db6 303d 1170 ae3d fbc1 d7bd
000003b0: 73ab a53c 9d7f c73d 5c4f 89ba c681 af3d
000003c0: 7ffc 5b3d 0caf abbc 120f 4ebd 9831 e8bc
000003d0: 0286 5bbb fd1d 373d 23fe e5bd a447 debd
000003e0: 9d98 33bd 2fb7 e2bd d526 913d 7722 82bc
000003f0: 7943 c5bd b857 8f3d e86b adbc 887e cc3d

dense_block.layers.0.2.bias f4 [4]
0.04486391 -0.05204233 -0.035390396 -0.021843152
00000000: 38c3 373d 572a 55bd 85f5 10bd 69f0 b2bc

dense_block.layers.1.0.weight f4 [12]
1.0034801 1.0095695 1.0023149 0.99523616 1.0084392 1.0121508 0.9958828 0.99744946
0.99500716 0.9847796 0.9951692 0.98152024
00000000: 0972 803f 9339 813f db4b 803f ccc7 7e3f
00000010: 8914 813f 288e 813f 2df2 7e3f d958 7f3f
00000020: cab8 7e3f 841a 7c3f 69c3 7e3f e944 7b3f

dense_block.layers.1.0.bias f4 [12]
0.012545568 0.0076754945 0.0021167735 0.0030468705 0.030650398 0.018545294 0.0016919437 0.04376925
-0.0027439697 0.0106763765 -0.007735734 -0.004406198
00000000: ed8b 4d3c b782 fb3b 91b9 0a3b 01ae 473b
00000010: 8b16 fb3c 4dec 973c 36c4 dd3a 6347 333d
00000020: 2cd4 33bb f8eb 2e3c 0a7c fdbb de61 90bb

dense_block.layers.1.0.running_mean f4 [12]
0.11975692 -0.39185208 0.34334147 0.37161428 0.52758956 -0.273913 -0.08867748 0.26680413
0.007335252 -0.03588322 -0.08193897 0.12207105
00000000: 1e43 f53d d6a0 c8be 74ca af3e 3a44 be3e
00000010: 1c10 073f 533e 8cbe 8a9c b5bd 8d9a 883e
00000020: 8e5c f03b 49fa 12bd 9ecf a7bd 6300 fa3d

dense_block.layers.1.0.running_var f4 [12]
0.017075736 0.028112218 0.013288545 0.020442912 0.040278375 0.0036996547 0.042873017 0.004325814
0.11107638 0.08485178 0.0552395 0.08021281
00000000: 6ae2 8b3c 984b e63c 33b8 593c e577 a73c
00000010: f0fa 243d e875 723b 9e9b 2f3d 8fbf 8d3b
00000020: 037c e33d c5c6 ad3d d042 623d 9d46 a43d

dense_block.layers.1.2.weight f4 [4, 12, 3, 3]
0.055080067 -0.07827222 -0.02811914 -0.018192388 0.050853763 -0.007512906 0.04542568 0.06825486
0.06667037 0.06903536 -0.02424768 0.058828205 -0.057694357 0.068312764 0.06170904 -0.05773584
0.075951524 0.06440001 -0.060717594 0.06700052 -0.042697847 0.027275432 0.00492375 0.04098076
0.055993047 0.07433442 0.047376014 0.0634667 0.026981834 0.032073475 -0.0041174637 0.006974439
0.004544677 -0.05963414 -0.056890763 0.03380716 0.028772147 -0.103240095 -0.10327235 -0.029188823
0.004747876 0.0049805506 -0.029358072 -0.07220369 -0.096224636 0.074420325 0.01910999 0.040229335
0.0050901407 -0.09745739 0.068732105 -0.036491133 -0.050139416 -0.049003817 -0.102421835 -0.004966058
-0.0036628013 -0.044181425 -0.04050644 -0.0036669709 -0.031892687 0.02020537 0.04951589 -0.07979192
0.07183136 0.054565668 0.06655068 -0.060313676 0.05704853 0.05152683 -0.082811356 -0.075478084
-0.034355067 -0.05273508 0.025536148 0.035361867 -0.04512602 -0.07682606 0.07525747 0.06712081
0.03761546 -0.037401274 0.07011136 0.07674375 0.038523678 -0.035123818 -0.07475803 0.032303095
-0.08474352 -0.081814125 0.0694192 0.04216257 -0.029123975 -0.03032323 -0.07849377 0.006319395
0.088898346 -0.06507613 -0.008455898 -0.08223382 0.049968578 0.010431358 0.004917443 -0.036979854
-0.056596506 -0.020592611 -0.029450243 0.023299616 -0.090580314 -0.05549475 0.058326233 0.080226585
0.08898002 0.089454316 0.07241604 0.0905977 0.053979486 -0.010877442 -0.09568265 -0.0803369
0.044900734 0.0052509285 -0.03386609 -0.05037458 -0.01873222 0.045368496 0.03628359 0.025626846
0.022324285 0.051218193 -0.08378585 -0.03232135 -0.025628528 0.015008812 -0.012828529 0.052959457
0.03275967 -0.056661677 -0.08169699 -0.050283626 -0.020778194 -0.042242873 0.0011868037 -0.05500621
0.068964265 0.04844214 0.04018357 -0.008525481 -0.08621465 -0.08066209 0.012699155 -0.07095911
0.04511348 -0.047768246 0.051491257 -0.04621377 -0.019832375 0.073681295 0.025513252 -0.07079222
-0.043685086 -0.016180905 0.00085742207 -0.015637912 0.056327756 0.038756732 -0.084755614 -0.01960226
0.04331909 0.055298164 -0.10012292 -0.06330679 -0.08340763 0.09033003 0.068788484 -0.088366136
0.062290102 0.08668851 0.008890848 -0.018529529 0.0075278403 -0.06924119 0.07166157 -0.034149636
-0.045022223 -0.021596761 -0.015871098 -0.0845202 -0.004123164 0.012499346 0.0028559482 -0.06881099
0.038562346 -0.05808793 0.09769609 0.031411745 0.052720185 0.038783453 -0.0054992945 -0.032502424
-0.067273505 -0.07281371 0.024844062 0.03601491 0.012146671 0.0065695685 0.049945813 -0.035442587
0.0193854 0.06939686 0.010608872 0.0796423 0.02962819 0.0035657291 -0.04166621 -0.042766117
-0.0053511118 -0.016237592 0.040928725 0.029859014 -0.066998236 -0.03758025 -0.005899118 -0.055809464
-0.04217914 -0.026716204 0.022984289 0.026845828 0.010293668 -0.03387806 -0.075120464 0.09106089
0.07939631 0.07605759 -0.060686585 0.0019710322 -0.04556632 0.09557722 0.05390283 0.013753137
0.00117415 0.059498206 0.065269604 -0.028786048 -0.03442126 0.04153299 0.0692469 0.034085892
-0.0475067 0.027277743 -0.091157146 -0.09147075 0.087540254 0.05410424 -0.044185933 -0.078049816
00000000: a39b 613d 304d a0bd 1c5a e6bc 3408 95bc
00000010: 094c 503d d32e f6bb 4710 3a3d 34c9 8b3d
00000020: 7a8a 883d 6962 8d3d 12a3 c6bc d8f5 703d
00000030: eb50 6cbd 90e7 8b3d 9ec2 7c3d 6b7c 6cbd
00000040: 798c 9b3d 27e4 833d 03b3 78bd 9237 893d
00000050: f0e3 2ebd ba70 df3c 6957 a13b 71db 273d
00000060: f758 653d a53c 983d 5a0d 423d d4fa 813d
00000070: 0209 dd3c 7a5f 033d caeb 86bb d689 e43b
00000080: 84eb 943b ee42 74bd 4a06 69bd 6079 0a3d
00000090: 91b3 eb3c 8b6f d3bd 7480 d3bd 661d efbc
000000a0: 1294 9b3b e333 a33b 5780 f0bc 87df 93bd
000000b0: 6c11 c5bd af69 983d 8e8c 9c3c 84c7 243d
000000c0: 32cb a63b bd97 c7bd 6bc3 8c3d ba77 15bd
000000d0: fd5e 4dbd 3ab8 48bd 8ac2 d1bd 50ba a2bb
000000e0: 9c0b 70bb 95f7 34bd 15ea 25bd 9051 70bb
000000f0: e8a1 02bd bb85 a53c 2dd1 4a3d f269 a3bd
00000100: 521c 933d 4080 5f3d b94b 883d 790b 77bd
00000110: b8ab 693d cc0d 533d 0099 a9bd 4194 9abd
00000120: e6b7 0cbd bd00 58bd 2f31 d13c 9bd7 103d
00000130: 10d6 38bd fb56 9dbd 9720 9a3d a376 893d
00000140: ab12 1a3d 1432 19bd 8b96 8f3d d42b 9d3d
00000150: 01cb 1d3d fedd 0fbd bd1a 99bd 4050 043d
00000160: 038e adbd 2a8e a7bd a72b 8e3d a9b2 2c3d
00000170: 6795 eebc 6c68 f8bc 57c1 a0bd ed12 cf3b
00000180: 5610 b63d a246 85bd 9b8a 0abc 346a a8bd
00000190: daab 4c3d 49e8 2a3c 8022 a13b 3078 17bd
000001a0: bdd1 67bd d6b1 a8bc a341 f1bc d6de be3c
000001b0: 2c82 b9bd 774e 63bd 7de7 6e3d d64d a43d
000001c0: 283b b63d d333 b73d dc4e 943d 498b b93d
000001d0: 9819 5d3d 4c37 32bc 44f5 c3bd ac87 a4bd
000001e0: d5e9 373d fb0f ac3b 2bb7 0abd 9355 4ebd
000001f0: 5074 99bc 51d4 393d 1a9e 143d 64ef d13c
00000200: 6be1 b63c 2bca 513d ea97 abbd 6463 04bd
00000210: ebf2 d1bc 85e7 753c c02e 52bc 04ec 583d
00000220: 012f 063d 1316 68bd c050 a7bd 34f6 4dbd
00000230: 0837 aabc dd06 2dbd 868e 9b3a 314e 61bd
00000240: 233d 8d3d 446b 463d 8797 243d 76ae 0bbc
00000250: 4e91 b0bd 2a32 a5bd 1e10 503c 0353 91bd
00000260: eac8 383d a3a8 43bd 7fe8 523d a64a 3dbd
00000270: 8177 a2bc 38e6 963d 2b01 d13c 83fb 90bd
00000280: 22ef 32bd d18d 84bc 9fc4 603a 141b 80bc
00000290: efb7 663d 61bf 1e3d 5a94 adbd eb94 a0bc
000002a0: 5c6f 313d 5480 623d 3f0d cdbd fea6 81bd
000002b0: 9fd1 aabd f3fe b83d fae0 8c3d 4ef9 b4bd
000002c0: e823 7f3d bf89 b13d ebaa 113c 3dcb 97bc
000002d0: 1aac f63b 53ce 8dbd 4dc3 923d 7de0 0bbd
000002e0: 3969 38bd b1eb b0bc 1b04 82bc ed18 adbd
000002f0: 9b1b 87bb 0fca 4c3c dc2a 3b3b c7ec 8cbd
00000300: 8df3 1d3d 9ced 6dbd e314 c83d 9aa9 003d
00000310: 1ff1 573d 66db 1e3d 6d33 b4bb 4321 05bd
00000320: b1c6 89bd 5b1f 95bd c685 cb3c 5f84 133d
00000330: d502 473c 8945 d73b fb93 4c3d 3f2c 11bd
00000340: 21ce 9e3c f11f 8e3d d6d0 2d3c 811b a33d
00000350: d1b6 f23c 02af 693b 30aa 2abd 862b 2fbd
00000360: 6158 afbb b304 85bc e1a4 273d e49a f43c
00000370: 5f36 89bd c0ed 19bd 634d c1bb 7798 64bd
00000380: 09c4 2cbd f1db dabc 8c49 bc3c c8eb db3c
00000390: c6a6 283c b8c3 0abd c2d8 99bd 227e ba3d
000003a0: 889a a23d 15c4 9b3d 7f92 78bd 6f2c 013b
000003b0: c0a3 3abd fdbd c33d 37c9 5c3d d654 613c
000003c0: f0e5 993a 64b4 733d 12ac 853d b8d0 ebbc
000003d0: 4ffd 0cbd 7f1e 2a3d 52d1 8d3d a69d 0b3d
000003e0: 6396 42bd 9375 df3c 99b0 babd 0455 bbbd
000003f0: 4e48 b33d 689c 5d3d 4ffc 34bd 95d8 9fbd

dense_block.layers.1.2.bias f4 [4]
0.031750996 0.07501543 0.068216436 0.09452166
00000000: 550d 023d b1a1 993d 0fb5 8b3d 9294 c13d

dense_block.layers.2.0.weight f4 [16]
0.99417967 1.0180165 0.9992711 0.9954952 1.0020931 1.0325731 1.0175315 1.0000005
0.9970085 0.9917202 0.9861909 0.99256843 0.99561465 0.9835246 0.9934165 0.9946146
00000000: 8f82 7e3f 5d4e 823f 3bd0 7f3f c6d8 7e3f
00000010: 9644 803f 5b2b 843f 793e 823f 0400 803f
00000020: f33b 7f3f 60e1 7d3f 0277 7c3f f718 7e3f
00000030: 9ae0 7e3f 45c8 7b3f 8b50 7e3f 109f 7e3f

dense_block.layers.2.0.bias f4 [16]
-0.0070411107 0.010326668 -0.004407361 0.0038230673 0.010700256 0.03434566 0.050020788 0.004827746
-0.0014888205 0.010313042 0.0015539017 0.002059477 0.010617546 0.0030512514 -0.0012743536 -0.007977736
00000000: 1eb9 e6bb 2f31 293c a06b 90bb 6d8c 7a3b
00000010: 2050 2f3c 09ae 0c3d 99e2 4c3d 1232 9e3b
00000020: 8724 c3ba 09f8 283c 4aac cb3a 4af8 063b
00000030: 37f5 2d3c 81f7 473b 3608 a7ba 0db5 02bc

dense_block.layers.2.0.running_mean f4 [16]
0.11975692 -0.39185208 0.34334147 0.37161428 0.52758956 -0.273913 -0.08867748 0.26680413
0.007335252 -0.03588322 -0.08193897 0.12207105 -0.014352779 0.023832537 0.0008324887 0.039678358
00000000: 1e43 f53d d6a0 c8be 74ca af3e 3a44 be3e
00000010: 1c10 073f 533e 8cbe 8a9c b5bd 8d9a 883e
00000020: 8e5c f03b 49fa 12bd 9ecf a7bd 6300 fa3d
00000030: eb27 6bbc 743c c33c 5f3b 5a3a c685 223d

dense_block.layers.2.0.running_var f4 [16]
0.017075736 0.028112218 0.013288545 0.020442912 0.040278375 0.0036996547 0.042873017 0.004325814
0.11107638 0.08485178 0.0552395 0.08021281 0.055228602 0.07731679 0.099705726 0.13332793
00000000: 6ae2 8b3c 984b e63c 33b8 593c e577 a73c
00000010: f0fa 243d e875 723b 9e9b 2f3d 8fbf 8d3b
00000020: 037c e33d c5c6 ad3d d042 623d 9d46 a43d
00000030: 6337 623d 4458 9e3d 8432 cc3d 1e87 083e

dense_block.layers.2.2.weight f4 [4, 16, 3, 3]
0.041834533 -0.018503742 -0.08688806 -0.034121107 0.075025275 0.037353702 -0.03442256 -0.0067076385
0.03240715 0.033967137 0.08784471 -0.011353422 -0.02131244 0.0067032855 -0.07123052 0.008710031
0.03886127 0.08129992 0.05138747 0.030781927 -0.03729559 -0.033308025 0.0813872 0.05466483
0.029385775 -0.078241765 0.053622764 -0.03077292 0.077929 -0.06855167 -0.05597363 -0.047500826
0.07032435 -0.052465055 -0.02983263 0.05585123 -0.030138763 0.004583832 0.06969291 0.060189042
0.07672364 -0.07928976 -0.074889414 -0.05859387 -0.07941632 -0.069513336 -0.09346253 0.05012229
-0.092616774 -0.022323888 -0.007857878 0.059466522 -0.0294384 -0.0746251 -0.017668456 0.019731058
-0.035529636 0.05122216 -0.05203363 0.012830563 -0.06934413 0.08830993 0.088132665 -0.022010973
0.052963592 -0.021254227 -0.022676434 0.052813306 -0.07755773 -0.012020937 0.029083034 0.028125018
-0.07707003 -0.022064574 0.0033839708 -0.000995621 -0.031840645 0.064010054 0.063533925 -0.002017961
0.034399174 0.05653219 -0.076337576 -0.05906823 -0.027232906 -0.060182873 -0.044926688 0.044794057
0.0839294 0.06031568 0.07840673 -0.03179367 -0.06614497 -0.017004022 0.064297736 0.006912299
-0.029783502 -0.05716572 -0.07178553 0.04839763 0.003055186 -0.043304082 0.07813726 -0.06233826
-0.07441314 0.0025796746 0.05977722 -0.06686762 0.043949947 0.032884687 0.0020640462 0.0019946294
0.09042306 -0.040276513 -0.03725791 0.026922777 -0.07212961 -0.06912854 0.04387009 -0.04414295
-0.04072715 0.031356018 -0.0025361902 0.052530713 -0.06229694 0.07471195 -0.016113218 0.0680423
-0.046686057 0.08877037 0.024066659 -0.011843141 -0.013518879 -0.0672998 0.0102191735 0.043651067
-0.08527339 0.0053208093 0.05542163 0.07135498 -0.0520158 -0.07145684 0.016355822 0.054347344
-0.031149581 0.0138647165 -0.008639565 0.0037651365 -0.036227677 0.046788614 -0.037782684 0.015813956
0.036170196 -0.047155604 0.003108875 -0.08374875 -0.0634331 -0.0712616 0.057887036 0.028741486
0.0067490535 -0.04326457 0.058664195 0.051324584 0.07011338 -0.04319949 -0.034400515 -0.0731167
-0.002768975 -0.03561484 0.07391413 0.032974984 0.06338172 0.0396321 0.04328914 -0.062453937
0.0554527 -0.03577201 0.033524122 0.060989615 -0.034764964 -0.025647225 0.019732917 -0.0425642
-0.06098042 0.082574174 0.055379137 0.060617093 0.07658045 -0.06292611 0.050165523 -0.029666428
-0.011248708 -0.056091476 -0.01676983 -0.003105457 -0.03832159 -0.057314556 -0.049326565 0.042959854
0.033851154 0.014195795 -0.043809067 0.08632199 -0.04125485 -0.063044615 0.07336531 0.014310456
0.040424943 -0.0019238964 0.06791549 0.051035807 0.049509037 0.024290161 -0.0074859126 -0.039070923
0.04133214 -0.07978579 -0.013230181 -0.029109221 -0.025308115 -0.082238816 0.07976293 -0.0519807
0.011420727 -0.010589208 4.904799e-05 -0.039677728 -0.066283666 0.011134466 -0.03080303 0.012005347
0.0849171 -0.00903118 -0.047017496 -0.065343305 -0.039556567 -0.0018544116 -0.03120644 0.0018298979
0.027202655 -0.00025363258 0.084590696 0.0671674 -0.01047198 -0.07620499 -0.04693639 -0.033474334
-0.02474256 -0.034194253 0.04028355 -0.019497689 -0.03554161 -0.063607715 -0.042445023 -0.05300941
00000000: b05a 2b3d 2995 97bc 5ef2 b1bd 93c2 0bbd
00000010: daa6 993d 3200 193d acfe 0cbd c0cb dbbb
00000020: 5cbd 043d 2021 0b3d ede7 b33d b403 3abc
00000030: 6d97 aebc 3ca7 db3b 4fe1 91bd 85b4 0e3c
00000040: ff2c 1f3d 9380 a63d ab7b 523d 612a fc3c
00000050: 43c3 18bd ff6d 08bd 55ae a63d 3be8 5f3d
00000060: 70ba f03c 383d a0bd 8ba3 5b3d 7e17 fcbc
00000070: 3d99 9f3d d164 8cbd 9b44 65bd 3a90 42bd
00000080: 3606 903d 99e5 56bd 8f63 f4bc 42c4 643d
00000090: 91e5 f6bc f833 963b 28bb 8e3d c988 763d
000000a0: 4921 9d3d ab62 a2bd 9f5f 99bd 2000 70bd
000000b0: 06a5 a2bd 025d 8ebd 4869 bfbd 084d 4d3d
000000c0: ddad bdbd 96e0 b6bc 54be 00bc 2b93 733d
000000d0: cd28 f1bc 0bd5 98bd 70bd 90bc 07a3 a13c
000000e0: 8687 11bd 54ce 513d 3721 55bd 4837 523c
000000f0: 4c04 8ebd d6db b43d e67e b43d 5b50 b4bc
00000100: 5af0 583d 581d aebc eec3 b9bc c452 583d
00000110: 96d6 9ebd 77f3 44bc 8b3f ee3c 7066 e63c
00000120: e4d6 9dbd c4c0 b4bc 9cc5 5d3b 7f7f 82ba
00000130: 566b 02bd b417 833d 131e 823d c43f 04bb
00000140: 26e6 0c3d 4c8e 673d e056 9cbd 87f1 71bd
00000150: 8b17 dfbc 5182 76bd 0c05 38bd f979 373d
00000160: 2de3 ab3d 930d 773d b593 a03d 143a 02bd
00000170: 0477 87bd 054c 8bbc 88ae 833d 9180 e23b
00000180: 88fc f3bc 9a26 6abd 4b04 93bd 983c 463d
00000190: 8439 483b 9f5f 31bd 6e06 a03d 6756 7fbd
000001a0: eb65 98bd c20f 293b f5d8 743d e4f1 88bd
000001b0: dc04 343d 18b2 063d f344 073b 54b8 023b
000001c0: ba2f b93d fcf8 24bd c09b 18bd 288d dc3c
000001d0: b0b8 93bd 4493 8dbd 20b1 333d 3dcf 34bd
000001e0: 83d1 26bd 2b6f 003d 3636 26bb 722a 573d
000001f0: 132b 7fbd 9402 993d deff 83bc c359 8b3d
00000200: e139 3fbd 3dcd b53d 7127 c53c bc09 42bc
00000210: 4a7e 5dbc 7ad4 89bd 526e 273c 76cb 323d
00000220: d1a3 aebd 2f5a ae3b cb01 633d 8f22 923d
00000230: 850e 55bd f757 92bd a5fc 853c 529b 5e3d
00000240: 682d ffbc d628 633c f68c 0dbc 82c0 763b
00000250: 7963 14bd 6ba5 3f3d 04c2 1abd 458c 813c
00000260: 3327 143d 3c26 41bd 44be 4b3b 7784 abbd
00000270: 37e9 81bd 9af1 91bd f51a 6d3d 4473 eb3c
00000280: 2a27 dd3b 3136 31bd de49 703d ba39 523d
00000290: 9b97 8f3d f3f1 30bd 8ee7 0cbd 35be 95bd
000002a0: b177 35bb dee0 11bd 4b60 973d c710 073d
000002b0: 46ce 813d 4555 223d f44f 313d b3cf 7fbd
000002c0: 5f22 633d ac85 12bd 9750 093d 3fd0 793d
000002d0: b565 0ebd 211a d2bc eda6 a13c cc57 2ebd
000002e0: 9bc6 79bd a61c a93d 3cd5 623d a149 783d
000002f0: 36d6 9c3d 68df 80bd 5d7a 4d3d 0207 f3bc
00000300: 804c 38bc 2dc0 65bd e260 89bc ec84 4bbb
00000310: 19f7 1cbd abc2 6abd a70a 4abd acf6 2f3d
00000320: 82a7 0a3d 7b95 683c 2371 33bd 95c9 b03d
00000330: d8fa 28bd 891d 81bd 8d40 963d 6776 6a3c
00000340: a094 253d 402b fcba 4717 8b3d ec0a 513d
00000350: fdc9 4a3d 29fc c63c 634c f5bb d508 20bd
00000360: e44b 293d bb66 a3bd 67c3 58bc 7676 eebc
00000370: f752 cfbc d36c a8bd bf5a a33d b7e9 54bd
00000380: 001e 3b3c 5c7e 2dbc e1b8 4d38 1d85 22bd
00000390: bbbf 87bd 566d 363c a356 fcbc 13b2 443c
000003a0: 04e9 ad3d 84f7 13bc 6b95 40bd b6d2 85bd
000003b0: 1106 22bd ba0f f3ba a6a4 ffbc 2fd9 ef3a
000003c0: 1ad8 de3c fdf9 84b9 e33d ad3d 108f 893d
000003d0: ab92 2bbc 5d11 9cbd 5f40 40bd 621c 09bd
000003e0: e9b0 cabc 460f 0cbd 5d00 253d 9eb9 9fbc
000003f0: 1494 11bd c344 82bd d5da 2dbd 6520 59bd

dense_block.layers.2.2.bias f4 [4]
-0.03350318 -0.06508633 0.05516193 -0.0062205973
00000000: a13a 09bd fb4b 85bd 7af1 613d 27d6 cbbb

dense_block.layers.3.0.weight f4 [20]
1.0026057 1.0300621 0.99617714 1.0002947 1.0080353 1.0179768 1.0031228 1.0040935
0.9927963 0.995275 1.0007985 0.9874597 0.9967834 0.98480695 1.0065646 0.9971723
0.98166245 0.98666286 1.0003946 1.0027391
00000000: 6255 803f 13d9 833f 7705 7f3f a809 803f
00000010: 4d07 813f 104d 823f 5466 803f 2386 803f
00000020: e627 7e3f 58ca 7e3f 2a1a 803f 29ca 7c3f
00000030: 322d 7f3f 4f1c 7c3f 1cd7 803f af46 7f3f
00000040: 3b4e 7b3f f095 7c3f ee0c 803f c159 803f

dense_block.layers.3.0.bias f4 [20]
0.006756245 0.011015004 0.0005313622 -0.00052758685 0.018204112 0.017925944 0.015121406 0.008781483
0.0016139572 0.020308303 0.0023646886 -0.0066739325 0.0057119196 0.002384775 0.0006262913 0.0031463753
-0.0036092915 -0.0017195939 0.0013426605 0.0068527255
00000000: 7e63 dd3b 4678 343c 1d4b 0b3a c14d 0aba
00000010: ca20 953c 6ed9 923c c6bf 773c 36e0 0f3c
00000020: 6b8b d33a 995d a63c e4f8 1a3b 01b1 dabb
00000030: 0e2b bb3b e349 1c3b b32d 243a 6b33 4e3b
00000040: dd89 6cbb ff63 e1ba 36fc af3a d48c e03b

dense_block.layers.3.0.running_mean f4 [20]
0.11975692 -0.39185208 0.34334147 0.37161428 0.52758956 -0.273913 -0.08867748 0.26680413
0.007335252 -0.03588322 -0.08193897 0.12207105 -0.014352779 0.023832537 0.0008324887 0.039678358
-0.09044711 -0.21759358 0.074459665 0.006294671
00000000: 1e43 f53d d6a0 c8be 74ca af3e 3a44 be3e
00000010: 1c10 073f 533e 8cbe 8a9c b5bd 8d9a 883e
00000020: 8e5c f03b 49fa 12bd 9ecf a7bd 6300 fa3d
00000030: eb27 6bbc 743c c33c 5f3b 5a3a c685 223d
00000040: 563c b9bd dad0 5ebe 4f7e 983d 8743 ce3b

dense_block.layers.3.0.running_var f4 [20]
0.017075736 0.028112218 0.013288545 0.020442912 0.040278375 0.0036996547 0.042873017 0.004325814
0.11107638 0.08485178 0.0552395 0.08021281 0.055228602 0.07731679 0.099705726 0.13332793
0.02924481 0.09688757 0.09752143 0.11198689
00000000: 6ae2 8b3c 984b e63c 33b8 593c e577 a73c
00000010: f0fa 243d e875 723b 9e9b 2f3d 8fbf 8d3b
00000020: 037c e33d c5c6 ad3d d042 623d 9d46 a43d
00000030: 6337 623d 4458 9e3d 8432 cc3d 1e87 083e
00000040: d092 ef3c fe6c c63d 51b9 c73d 6259 e53d

dense_block.layers.3.2.weight f4 [16, 20, 3, 3]
-0.026297275 -0.028152712 -0.03046057 -0.028090995 -0.05823723 0.048568558 -0.037325114 -0.07743233
0.0266392 0.06768373 0.020705957 0.03242147 0.021229578 0.040165104 0.04301107 0.018471634
-0.049534682 -0.021983715 0.034542866 -0.038019273 -0.03622898 0.03551853 0.007603916 0.04320709
0.06187036 -0.07278751 -0.03658671 -0.052790046 -0.028793246 0.04769936 0.051303603 -0.029580839
0.0012304224 -0.05124925 -0.07403715 0.03414779 0.008289073 0.04780824 0.04022727 0.069929235
-0.006514089 -0.026147744 -0.05996168 -0.037595376 -0.040259905 -0.031839587 -0.016581703 0.050274022
0.062133066 0.0020745166 0.048062827 -0.012931042 -0.06687351 -0.04575295 0.041334543 0.082445234
-0.054949615 0.05833851 -0.04487016 0.011508308 -0.030999592 0.069782756 -0.01983657 0.0053291554
0.045470513 -0.01714481 -0.009361151 -0.019588692 0.02030813 -0.05687161 0.011499101 0.05766174
-0.052914158 -0.06468528 0.009390547 -0.019717703 -0.06416376 -0.00043019268 0.055925097 0.048607178
-0.031520437 0.059894405 -0.0003823134 -0.042388566 -0.050097626 0.017062448 -0.0394161 0.05133766
-0.054437034 -0.05269293 0.028576301 0.046567973 -0.023992544 -0.05248758 -0.03829132 -0.058094196
0.07749876 -0.01615341 0.06866028 0.057819195 -0.03351379 0.0050947582 0.04459638 0.05725118
-0.02609866 0.043382756 -0.05415021 -0.05019832 -0.032204367 0.009878525 -0.025862418 0.0009753831
-0.060243502 -0.015966149 0.051940158 -0.065343596 0.057918403 0.034400206 0.03635848 -0.06225083
0.043191746 0.028116707 -0.023320587 0.05196599 -0.034169935 -0.01661788 0.028399527 0.008466537
0.014408359 -0.035384607 0.029382205 -0.037386745 0.039603073 -0.017289482 0.0052540936 0.070846125
-0.008088413 0.038346354 -0.0037956599 0.033708062 0.010712342 0.059031777 0.053246915 0.037745763
-0.029111708 -0.0501159 0.026792675 0.068253234 0.030374482 0.04921417 -0.049069192 0.05237466
0.024055364 0.0006357043 -0.033963557 -0.060056936 -0.05437861 0.006972869 0.039148264 0.06087692
0.04241603 0.040297586 -0.05513497 -0.05479538 -0.067448385 0.003438568 -0.033865444 -0.054872952
-0.06579647 -0.06852335 0.033698495 0.05710724 0.05120338 -0.025669781 -0.048398677 0.0027533565
0.016802683 -0.03354155 0.043229785 -0.0004220828 -0.007572507 0.057173524 -0.058071423 0.0671297
-0.057856273 -0.057962444 0.0036460564 0.004598354 -0.064917825 0.05540701 0.04875342 0.026240546
-0.04194936 -0.054781333 0.05333346 -0.05781257 -0.05114045 -0.015592006 -0.012384235 0.068020195
0.0047600204 -0.0064234114 0.024512934 -0.06294195 -0.067249045 -0.009116988 -0.053012013 -0.066793054
0.0138589945 -0.021375915 0.05595429 0.014492608 0.011172713 0.0018924644 0.023231992 0.049697816
-0.025623916 -0.070303306 -0.06158778 0.010810069 0.06294261 -0.013766467 -0.024352912 -0.0045668627
-0.014641023 0.014275116 -0.0014546821 0.023769531 -0.03805961 -0.008111607 0.004834597 0.04879594
0.06918054 0.067868724 0.029525971 -0.06702161 0.04246509 -0.008667905 0.06487169 0.04622899
-0.031919114 -0.036103874 -0.02915447 -0.027251732 -0.0014804136 -0.006565738 0.0283806 -0.038735386
-0.012391619 -0.05156136 0.029602056 0.0011268079 -0.010395425 0.04487222 0.042769115 0.055736337
00000000: 626d d7bc 84a0 e6bc 7288 f9bc 161f e6bc
00000010: 298a 6ebd d3ef 463d 38e2 18bd d794 9ebd
00000020: 743a da3c c49d 8a3d 8a9f a93c 60cc 043d
00000030: a7e9 ad3c 2a84 243d 602c 303d d351 973c
00000040: e1e4 4abd 3117 b4bc d27c 0d3d 19ba 1bbd
00000050: d764 14bd e17b 113d 452a f93b ebf9 303d
00000060: c66b 7d3d 9e11 95bd f2db 15bd 603a 58bd
00000070: d0df ebbc 6760 433d ba23 523d 8453 f2bc
00000080: 2046 a13a bcea 51bd caa0 97bd 8ede 0b3d
00000090: e4ce 073c 93d2 433d 5ac5 243d 0f37 8f3d
000000a0: 2474 d5bb cb33 d6bc 619a 75bd 9cfd 19bd
000000b0: 92e7 24bd 3a6a 02bd 5ad6 87bc 22ec 4d3d
000000c0: 3e7f 7e3d 9df4 073b 87dd 443d b9dc 53bc
000000d0: fbf4 88bd 7267 3bbd 694e 293d 0cd9 a83d
000000e0: d912 61bd 5df4 6e3d c6c9 37bd 588d 3c3c
000000f0: dbf2 fdbc 43ea 8e3d 4d80 a2bc 32a0 ae3b
00000100: 4a3f 3a3d 4673 8cbc 835f 19bc 7778 a0bc
00000110: 3c5d a63c 35f2 68bd ba66 3c3c b72e 6c3d
00000120: 84bc 58bd b779 84bd cfda 193c 0587 a1bc
00000130: 4a68 83bd 7c8b e1b9 b711 653d 5218 473d
00000140: 931b 01bd d653 753d 3c71 c8b9 a29f 2dbd
00000150: 2b33 4dbd 8cc6 8b3c c772 21bd 7047 523d
00000160: 5ef9 5ebd 8bd4 57bd d918 ea3c 0fbe 3e3d
00000170: 038c c4bc 37fd 56bd 5cd7 1cbd 2ef4 6dbd
00000180: abb7 9e3d 2854 84bc c39d 8c3d d2d3 6c3d
00000190: c245 09bd eef1 a63b b2aa 363d 3780 6a3d
000001a0: dbcc d5bc 1eb2 313d 9ccc 5dbd c19c 4dbd
000001b0: bae8 03bd 89d9 213c 6cdd d3bc dab0 7f3a
000001c0: e4c1 76bd 71cb 82bc 34bf 543d ddd2 85bd
000001d0: d93b 6d3d 3be7 0c3d a1ec 143d bafa 7ebd
000001e0: d4e9 303d 0255 e63c d10a bfbc 4ada 543d
000001f0: c6f5 0bbd 3822 88bc 20a6 e83c 3bb7 0a3c
00000200: 0a11 6c3c 73ef 10bd f3b2 f03c d822 19bd
00000210: d536 223d aca2 8dbc 882a ac3b c617 913d
00000220: 4385 04bc 1111 1d3d 9bc0 78bb 7711 0a3d
00000230: d282 2f3c 4ecb 713d 7019 5a3d 4d9b 1a3d
00000240: ad7b eebc 5446 4dbd 507c db3c 5ac8 8b3d
00000250: e8d3 f83c cc94 493d c7fc 48bd d086 563d
00000260: c10f c53c 65a5 263a 5f1d 0bbd 43fe 75bd
00000270: 1bbc 5ebd aa7c e43b ee59 203d 145a 793d
00000280: 6ebc 2d3d 150f 253d 35d5 61bd 1f71 60bd
00000290: 6122 8abd 9959 613b 7eb6 0abd 76c2 60bd
000002a0: 4dc0 86bd f855 8cbd 6f07 0a3d 48e9 693d
000002b0: a3ba 513d 6f49 d2bc b13d 46bd a871 343b
000002c0: c8a5 893c dd62 09bd b711 313d ff4a ddb9
000002d0: cb22 f8bb c92e 6a3d 4ddc 6dbd 4c7b 893d
000002e0: b3fa 6cbd 076a 6dbd adf2 6e3b caad 963b
000002f0: a3f3 84bd 76f2 623d abb1 473d 6af6 d63c
00000300: 18d3 2bbd 6462 60bd 3074 5a3d e0cc 6cbd
00000310: a678 51bd 9d75 7fbc 3fe7 4abc 2c4e 8b3d
00000320: f2f9 9b3b 7b7b d2bb 59cf c83c b6e7 80bd
00000330: deb9 89bd 6b5f 15bc 2023 59bd ccca 88bd
00000340: d610 633c 8b1c afbc 5330 653d 6772 6d3c
00000350: c10d 373c 910c f83a 0551 be3c f08f 4b3d
00000360: 3fe9 d1bc 2efb 8fbd 7843 7cbd b71c 313c
00000370: 0ee8 803d bf8c 61bc c27f c7bc 9fa5 95bb
00000380: e7e0 6fbc 2de2 693c 08ab beba 52b8 c23c
00000390: 65e4 1bbd 8ce6 04bc 8a6b 9e3b 40de 473d
000003a0: 87ae 8d3d c2fe 8a3d 73e0 f13c a042 89bd
000003b0: e0ef 2d3d d403 0ebc 73db 843d 9c5a 3d3d
000003c0: 9ebd 02bd a8e1 13bd 5bd5 eebc 063f dfbc
000003d0: 700a c2ba 6725 d7bb 6f7e e83c ffa8 1ebd
000003e0: 3806 4bbc 0132 53bd 0380 f23c 66b1 933a
000003f0: 9351 2abc efcb 373d ab2e 2f3d c94b 643d

dense_block.layers.3.2.bias f4 [16]
0.005551911 0.021529922 0.045308985 0.03317793 -0.02440193 0.038133174 0.062796354 0.022509342
-0.07357313 0.02758035 0.021780094 0.03817774 -0.03814301 0.05173659 -0.05487811 -0.017684031
00000000: ceec b53b 855f b03c ea95 393d 95e5 073d
00000010: 8ee6 c7bc 8831 1c3d 609b 803d 8365 b83c
00000020: 82ad 96bd 30f0 e13c 2b6c b23c 4360 1c3d
00000030: d83b 1cbd bfe9 533d dec7 60bd 1ade 90bc

bottleneck_conv.weight f4 [64, 36, 1, 1]
-0.07037815 0.047005355 0.107121736 -0.15195245 -0.07482799 -0.11373898 -0.14116257 0.059074283
-0.12076808 0.1259059 0.081796035 -0.12083651 0.04312541 0.051201858 0.06279817 -0.036900874
0.10453237 -0.028396094 0.11278292 -0.10608961 -0.14718503 -0.04849022 0.061054483 -0.0049896585
-0.12495896 0.06637547 -0.0157003 0.0018534539 0.14453463 -0.012604941 0.009817729 -0.10761758
-0.1320374 -0.06408177 0.065930076 -0.14096041 -0.11740741 -0.16075918 -0.13470393 0.15336193
-0.11919537 0.048604872 -0.14440443 -0.056388237 -0.06893473 0.014701775 0.089026764 0.15559365
-0.15491706 -0.1255329 -0.02717198 0.080636926 0.13189973 -0.080286495 0.02762956 0.124568574
-0.06944485 0.10157658 0.100217484 -0.0068928716 -0.117098324 0.09083787 0.07399761 -0.07084092
-0.113956675 -0.16521107 0.073922485 0.088500164 -0.14462715 0.05936682 -0.16458209 -0.11352621
-0.14016682 0.08531026 0.09104662 0.10029106 -0.09753881 -0.065412186 0.09968608 -0.0036131379
0.10366755 -0.055490978 -0.083608516 0.104196995 0.049838904 0.14600708 0.101537466 -0.098303385
-0.08474946 -0.060559712 -0.09260738 -0.11829852 -0.04863874 0.15737458 0.106064506 0.015508275
0.075908534 -0.12196246 0.11812089 0.0046749995 -0.020796325 -0.07254799 0.01633493 0.1429146
0.028325986 -0.018104263 -0.031961538 0.0057378323 0.012459961 -0.1480319 -0.01313271 0.018705295
-0.16583282 -0.12640204 0.14783154 0.13041133 0.083932646 -0.04484368 -0.13806853 -0.1579281
0.101552576 0.14591716 -0.005475139 -0.1603129 -0.10059599 -0.116971135 -0.0016779822 -0.14204578
-0.071340814 -0.11178072 0.119548544 0.03881556 0.07058543 0.15232806 -0.11169348 0.026591368
0.033684395 -0.117211394 -0.09414281 0.10592546 0.11782802 0.15082683 -0.0438051 0.019049674
0.03322362 0.043115914 0.003995592 0.009770214 0.033580657 -0.12839085 0.059895657 0.11203342
-0.10905251 -0.15997748 -0.061556786 0.15975322 0.032940347 -0.039349794 -0.06039333 0.07259708
0.12974535 0.158255 0.07525958 -0.15735775 -0.062733166 0.16559386 0.14538711 0.10263016
0.14345887 -0.1046511 0.0929703 0.11504972 0.13929021 -0.1213233 -0.086724706 0.09296873
-0.07183491 -0.14756712 0.027747994 -0.027755015 0.07166639 0.07277063 0.15890393 0.034147605
-0.117896825 -0.10148666 0.121415764 0.04883669 -0.1752837 -0.07921573 0.08320524 0.11010976
0.13487063 0.15423404 -0.019939415 0.11141717 0.12981041 0.049656693 -0.030603306 -0.116415866
0.055144414 0.08884275 0.15342264 -0.124397285 0.08854057 0.12061771 -0.11358261 0.05636236
0.042527765 -0.12310136 -0.06927803 -0.011994268 -0.1356472 -0.03421372 0.06474362 0.12659562
-0.05853384 -0.047281835 0.11244307 -0.13301434 -0.084684044 -0.07223423 0.018014958 0.13192827
-0.13667527 -0.11566331 0.13283283 -0.02295932 -0.11199363 -0.08552299 0.02185517 -0.044806916
-0.10323174 0.11833881 0.04610829 0.03948732 -0.048024975 0.1508365 0.08191095 0.0025866819
-0.03782458 0.08695406 0.13506715 -0.027555069 -0.1354069 0.07511844 0.15645544 0.024249246
0.052661184 0.1499651 -0.049356464 -0.12379904 -0.08411839 -0.01971586 0.044302966 -0.00363645
00000000: 6b22 90bd b088 403d a462 db3d 6c99 1bbe
00000010: 6b3f 99bd fbef e8bd ec8c 10be e0f7 713d
00000020: 4155 f7bd 7aed 003e ae84 a73d 2279 f7bd
00000030: 45a4 303d 0ab9 513d 549c 803d 5f25 17bd
00000040: 1115 d63d ed9e e8bc bbfa e63d 8245 d9bd
00000050: acb7 16be ae9d 46bd 4414 7a3d 4a80 a3bb
00000060: 7cea ffbd ddef 873d ea9d 80bc 98ef f23a
00000070: e300 143e f484 4ebc 8ada 203c 9b66 dcbd
00000080: d034 07be 4e3d 83bd 5906 873d ed57 10be
00000090: 4c73 f0bd 0e9e 24be d4ef 09be e90a 1d3e
000000a0: b41c f4bd e715 473d c1de 13be 5af7 66bd
000000b0: a72d 8dbd b7df 703c aa53 b63d f153 1f3e
000000c0: 94a2 1ebe b28b 00be c697 debc f924 a53d
000000d0: b910 073e 3f6d a4bd 6357 e23c cf1d ff3d
000000e0: 1a39 8ebd 6207 d03d d33e cd3d 99dd e1bb
000000f0: 3fd1 efbd 3509 ba3d 0f8c 973d 0b15 91bd
00000100: 1e62 e9bd 172d 29be ac64 973d 933f b53d
00000110: 2419 14be 9f2a 733d 3588 28be 6e80 e8bd
00000120: e487 0fbe 25b7 ae3d a676 ba3d 6665 cd3d
00000130: 6dc2 c7bd d3f6 85bd 3728 cc3d 65ca 6cbb
00000140: a74f d43d 824a 63bd f13a abbd 3c65 d53d
00000150: e123 4c3d e182 153e e0f2 cf3d 4953 c9bd
00000160: 2091 adbd 760d 78bd f0a8 bdbd 7f46 f2bd
00000170: 6a39 47bd cd26 213e 5938 d93d 6b16 7e3c
00000180: ef75 9b3d 74c7 f9bd 5de9 f13d bd30 993b
00000190: 0e5d aabc 0a94 94bd d5d0 853c 3458 123e
000001a0: e60b e83c 644f 94bc 1aea 02bd 6d04 bc3b
000001b0: dd24 4c3c ad95 17be 942a 57bc d93b 993c
000001c0: 14d0 29be 896f 01be 2761 173e 8c8a 053e
000001d0: e1e4 ab3d 02ae 37bd d661 0dbe e7b7 21be
000001e0: ccfa cf3d 4f6b 153e cb68 b3bb 1129 24be
000001f0: 4505 cebd 908e efbd bdef dbba 7374 11be
00000200: 221b 92bd 4aed e4bd ded5 f43d 11fd 1e3d
00000210: 188f 903d e3fb 1b3e 8dbf e4bd 24d6 d93c
00000220: a6f8 093d 870c f0bd f2cd c0bd 73ef d83d
00000230: d14f f13d 5972 1a3e fa6c 33bd 100e 9c3c
00000240: 7e15 083d 509a 303d 74ed 823b 3f13 203c
00000250: df8b 093d e478 03be 2655 753d c771 e53d
00000260: ec56 dfbd 23d1 23be f822 7cbd 5996 233e
00000270: 75ec 063d 402d 21bd ff5e 77bd c7ad 943d
00000280: f7db 043e 990d 223e b221 9a3d 6422 21be
00000290: 3f7a 80bd 7091 293e 5ce0 143e c32f d23d
000002a0: e2e6 123e 5153 d6bd 3667 be3d 309f eb3d
000002b0: 18a2 0e3e 5a78 f8bd b99c b1bd 6466 be3d
000002c0: 2e1e 93bd d61b 17be c34f e33c 7c5e e3bc
000002d0: d4c5 923d c508 953d b6b7 223e 5cde 0b3d
000002e0: e473 f1bd 3dd8 cfbd d4a8 f83d fb08 483d
000002f0: 927d 33be db3b a2bd 8267 aa3d 3a81 e13d
00000300: 871b 0a3e 87ef 1d3e fc57 a3bc af2e e43d
00000310: 05ed 043e d164 4b3d c9b3 fabc 716b eebd
00000320: 1cdf 613d 30f3 b53d d31a 1d3e 01c4 febd
00000330: c254 b53d 6b06 f73d 009e e8bd 38dc 663d
00000340: 9831 2e3d 911c fcbd a4e1 8dbd 9b83 44bc
00000350: 19e7 0abe b023 0cbd 4e98 843d 48a2 013e
00000360: 2ec1 6fbd 99aa 41bd 8d48 e63d e934 08be
00000370: d46e adbd 8aef 93bd 1b94 933c 3418 073e
00000380: 9af4 0bbe e3e0 ecbd 5405 083e 2f15 bcbc
00000390: eb5c e5bd ad26 afbd 9d09 b33c 7587 37bd
000003a0: 2a6b d3bd 9e5b f23d 0cdc 3c3d 75bd 213d
000003b0: d6b5 44bd e274 1a3e eec0 a73d 5285 293b
000003c0: f2ed 1abd f814 b23d 0b4f 0a3e 2bbb e1bc
000003d0: 1ba8 0abe b2d7 993d db35 203e 5ba6 c63c
000003e0: 41b3 573d 7490 193e 012a 4abd 5a8a fdbd
000003f0: 4346 acbd 2883 a1bc 0777 353d 8251 6ebb

bottleneck_conv.bias f4 [64]
0.051888373 -0.009677554 0.007827866 -0.072805695 -0.024717592 -0.08325503 0.15332039 0.011961936
-0.04992823 0.09411005 -0.15912113 -0.16292098 0.0204558 0.10863736 0.0945824 -0.06499201
0.0012359897 -0.14947794 0.13730942 -0.06608094 0.14507714 0.13962752 -0.037049852 -0.10066957
0.086908214 0.011435818 0.1452092 -0.022707378 0.12679183 -0.09372974 -0.09118717 -0.058724735
-0.14963011 0.11984981 0.06822733 0.096977554 0.1665349 -0.00818958 -0.012614238 -0.043368418
-0.15276575 0.025806895 -0.06766931 0.15290947 0.04550054 -0.08637804 -0.014270286 0.09476862
-0.1417227 -0.024474703 0.06992182 0.038758013 -0.10640977 0.13905154 -0.001631454 0.022559969
0.1415135 0.01215986 -0.124492384 0.121364795 0.13606882 0.15719196 0.035994392 0.11504216
00000000: e788 543d 9a8e 1ebc 7340 003c 271b 95bd
00000010: 8c7c cabc 9d81 aabd 0500 1d3e fffb 433c
00000020: 8b81 4cbd c5bc c03d a6f0 22be c2d4 26be
00000030: ec92 a73c 447d de3d 6bb4 c13d 881a 85bd
00000040: ef00 a23a bf10 19be d79a 0c3e 7255 87bd
00000050: 1a8f 143e 84fa 0e3e 96c1 17bd d92b cebd
00000060: effc b13d 4c5d 3b3c b8b1 143e d304 babc
00000070: b8d5 013e 61f5 bfbd 57c0 babd 5989 70bd
00000080: a338 19be d173 f53d c5ba 8b3d 2b9c c63d
00000090: 2088 2a3e 972d 06bc f3ab 4ebc 15a3 31bd
000000a0: a06e 1cbe fb68 d33c 3596 8abd 4d94 1c3e
000000b0: c65e 3a3d f8e6 b0bd ebcd 69bc 0d16 c23d
000000c0: c11f 11be 2c7f c8bc 2c33 8f3d b9c0 1e3d
000000d0: 5eed d9bd 8763 0e3e 83d6 d5ba afcf b83c
000000e0: eae8 103e 263a 473c ddf5 febd 1b8e f83d
000000f0: a055 0b3e eef6 203e db6e 133d 399b eb3d
